{"modelTopology": {"keras_version": "2.1.6", "backend": "tensorflow", "model_config": {"class_name": "Model", "config": {"name": "model_3", "layers": [{"name": "input_1", "class_name": "InputLayer", "config": {"batch_input_shape": [null, 299, 299, 3], "dtype": "float32", "sparse": false, "name": "input_1"}, "inbound_nodes": []}, {"name": "block1_conv1", "class_name": "Conv2D", "config": {"name": "block1_conv1", "trainable": false, "filters": 32, "kernel_size": [3, 3], "strides": [2, 2], "padding": "valid", "data_format": "channels_last", "dilation_rate": [1, 1], "activation": "linear", "use_bias": false, "kernel_initializer": {"class_name": "VarianceScaling", "config": {"scale": 1.0, "mode": "fan_avg", "distribution": "uniform", "seed": null}}, "bias_initializer": {"class_name": "Zeros", "config": {}}, "kernel_regularizer": null, "bias_regularizer": null, "activity_regularizer": null, "kernel_constraint": null, "bias_constraint": null}, "inbound_nodes": [[["input_1", 0, 0, {}]]]}, {"name": "block1_conv1_bn", "class_name": "BatchNormalization", "config": {"name": "block1_conv1_bn", "trainable": false, "axis": -1, "momentum": 0.99, "epsilon": 0.001, "center": true, "scale": true, "beta_initializer": {"class_name": "Zeros", "config": {}}, "gamma_initializer": {"class_name": "Ones", "config": {}}, "moving_mean_initializer": {"class_name": "Zeros", "config": {}}, "moving_variance_initializer": {"class_name": "Ones", "config": {}}, "beta_regularizer": null, "gamma_regularizer": null, "beta_constraint": null, "gamma_constraint": null}, "inbound_nodes": [[["block1_conv1", 0, 0, {}]]]}, {"name": "block1_conv1_act", "class_name": "Activation", "config": {"name": "block1_conv1_act", "trainable": false, "activation": "relu"}, "inbound_nodes": [[["block1_conv1_bn", 0, 0, {}]]]}, {"name": "block1_conv2", "class_name": "Conv2D", "config": {"name": "block1_conv2", "trainable": false, "filters": 64, "kernel_size": [3, 3], "strides": [1, 1], "padding": "valid", "data_format": "channels_last", "dilation_rate": [1, 1], "activation": "linear", "use_bias": false, "kernel_initializer": {"class_name": "VarianceScaling", "config": {"scale": 1.0, "mode": "fan_avg", "distribution": "uniform", "seed": null}}, "bias_initializer": {"class_name": "Zeros", "config": {}}, "kernel_regularizer": null, "bias_regularizer": null, "activity_regularizer": null, "kernel_constraint": null, "bias_constraint": null}, "inbound_nodes": [[["block1_conv1_act", 0, 0, {}]]]}, {"name": "block1_conv2_bn", "class_name": "BatchNormalization", "config": {"name": "block1_conv2_bn", "trainable": false, "axis": -1, "momentum": 0.99, "epsilon": 0.001, "center": true, "scale": true, "beta_initializer": {"class_name": "Zeros", "config": {}}, "gamma_initializer": {"class_name": "Ones", "config": {}}, "moving_mean_initializer": {"class_name": "Zeros", "config": {}}, "moving_variance_initializer": {"class_name": "Ones", "config": {}}, "beta_regularizer": null, "gamma_regularizer": null, "beta_constraint": null, "gamma_constraint": null}, "inbound_nodes": [[["block1_conv2", 0, 0, {}]]]}, {"name": "block1_conv2_act", "class_name": "Activation", "config": {"name": "block1_conv2_act", "trainable": false, "activation": "relu"}, "inbound_nodes": [[["block1_conv2_bn", 0, 0, {}]]]}, {"name": "block2_sepconv1", "class_name": "SeparableConv2D", "config": {"name": "block2_sepconv1", "trainable": false, "filters": 128, "kernel_size": [3, 3], "strides": [1, 1], "padding": "same", "data_format": "channels_last", "dilation_rate": [1, 1], "activation": "linear", "use_bias": false, "bias_initializer": {"class_name": "Zeros", "config": {}}, "bias_regularizer": null, "activity_regularizer": null, "bias_constraint": null, "depth_multiplier": 1, "depthwise_initializer": {"class_name": "VarianceScaling", "config": {"scale": 1.0, "mode": "fan_avg", "distribution": "uniform", "seed": null}}, "pointwise_initializer": {"class_name": "VarianceScaling", "config": {"scale": 1.0, "mode": "fan_avg", "distribution": "uniform", "seed": null}}, "depthwise_regularizer": null, "pointwise_regularizer": null, "depthwise_constraint": null, "pointwise_constraint": null}, "inbound_nodes": [[["block1_conv2_act", 0, 0, {}]]]}, {"name": "block2_sepconv1_bn", "class_name": "BatchNormalization", "config": {"name": "block2_sepconv1_bn", "trainable": false, "axis": -1, "momentum": 0.99, "epsilon": 0.001, "center": true, "scale": true, "beta_initializer": {"class_name": "Zeros", "config": {}}, "gamma_initializer": {"class_name": "Ones", "config": {}}, "moving_mean_initializer": {"class_name": "Zeros", "config": {}}, "moving_variance_initializer": {"class_name": "Ones", "config": {}}, "beta_regularizer": null, "gamma_regularizer": null, "beta_constraint": null, "gamma_constraint": null}, "inbound_nodes": [[["block2_sepconv1", 0, 0, {}]]]}, {"name": "block2_sepconv2_act", "class_name": "Activation", "config": {"name": "block2_sepconv2_act", "trainable": false, "activation": "relu"}, "inbound_nodes": [[["block2_sepconv1_bn", 0, 0, {}]]]}, {"name": "block2_sepconv2", "class_name": "SeparableConv2D", "config": {"name": "block2_sepconv2", "trainable": false, "filters": 128, "kernel_size": [3, 3], "strides": [1, 1], "padding": "same", "data_format": "channels_last", "dilation_rate": [1, 1], "activation": "linear", "use_bias": false, "bias_initializer": {"class_name": "Zeros", "config": {}}, "bias_regularizer": null, "activity_regularizer": null, "bias_constraint": null, "depth_multiplier": 1, "depthwise_initializer": {"class_name": "VarianceScaling", "config": {"scale": 1.0, "mode": "fan_avg", "distribution": "uniform", "seed": null}}, "pointwise_initializer": {"class_name": "VarianceScaling", "config": {"scale": 1.0, "mode": "fan_avg", "distribution": "uniform", "seed": null}}, "depthwise_regularizer": null, "pointwise_regularizer": null, "depthwise_constraint": null, "pointwise_constraint": null}, "inbound_nodes": [[["block2_sepconv2_act", 0, 0, {}]]]}, {"name": "block2_sepconv2_bn", "class_name": "BatchNormalization", "config": {"name": "block2_sepconv2_bn", "trainable": false, "axis": -1, "momentum": 0.99, "epsilon": 0.001, "center": true, "scale": true, "beta_initializer": {"class_name": "Zeros", "config": {}}, "gamma_initializer": {"class_name": "Ones", "config": {}}, "moving_mean_initializer": {"class_name": "Zeros", "config": {}}, "moving_variance_initializer": {"class_name": "Ones", "config": {}}, "beta_regularizer": null, "gamma_regularizer": null, "beta_constraint": null, "gamma_constraint": null}, "inbound_nodes": [[["block2_sepconv2", 0, 0, {}]]]}, {"name": "conv2d_1", "class_name": "Conv2D", "config": {"name": "conv2d_1", "trainable": false, "filters": 128, "kernel_size": [1, 1], "strides": [2, 2], "padding": "same", "data_format": "channels_last", "dilation_rate": [1, 1], "activation": "linear", "use_bias": false, "kernel_initializer": {"class_name": "VarianceScaling", "config": {"scale": 1.0, "mode": "fan_avg", "distribution": "uniform", "seed": null}}, "bias_initializer": {"class_name": "Zeros", "config": {}}, "kernel_regularizer": null, "bias_regularizer": null, "activity_regularizer": null, "kernel_constraint": null, "bias_constraint": null}, "inbound_nodes": [[["block1_conv2_act", 0, 0, {}]]]}, {"name": "block2_pool", "class_name": "MaxPooling2D", "config": {"name": "block2_pool", "trainable": false, "pool_size": [3, 3], "padding": "same", "strides": [2, 2], "data_format": "channels_last"}, "inbound_nodes": [[["block2_sepconv2_bn", 0, 0, {}]]]}, {"name": "batch_normalization_1", "class_name": "BatchNormalization", "config": {"name": "batch_normalization_1", "trainable": false, "axis": -1, "momentum": 0.99, "epsilon": 0.001, "center": true, "scale": true, "beta_initializer": {"class_name": "Zeros", "config": {}}, "gamma_initializer": {"class_name": "Ones", "config": {}}, "moving_mean_initializer": {"class_name": "Zeros", "config": {}}, "moving_variance_initializer": {"class_name": "Ones", "config": {}}, "beta_regularizer": null, "gamma_regularizer": null, "beta_constraint": null, "gamma_constraint": null}, "inbound_nodes": [[["conv2d_1", 0, 0, {}]]]}, {"name": "add_1", "class_name": "Add", "config": {"name": "add_1", "trainable": false}, "inbound_nodes": [[["block2_pool", 0, 0, {}], ["batch_normalization_1", 0, 0, {}]]]}, {"name": "block3_sepconv1_act", "class_name": "Activation", "config": {"name": "block3_sepconv1_act", "trainable": false, "activation": "relu"}, "inbound_nodes": [[["add_1", 0, 0, {}]]]}, {"name": "block3_sepconv1", "class_name": "SeparableConv2D", "config": {"name": "block3_sepconv1", "trainable": false, "filters": 256, "kernel_size": [3, 3], "strides": [1, 1], "padding": "same", "data_format": "channels_last", "dilation_rate": [1, 1], "activation": "linear", "use_bias": false, "bias_initializer": {"class_name": "Zeros", "config": {}}, "bias_regularizer": null, "activity_regularizer": null, "bias_constraint": null, "depth_multiplier": 1, "depthwise_initializer": {"class_name": "VarianceScaling", "config": {"scale": 1.0, "mode": "fan_avg", "distribution": "uniform", "seed": null}}, "pointwise_initializer": {"class_name": "VarianceScaling", "config": {"scale": 1.0, "mode": "fan_avg", "distribution": "uniform", "seed": null}}, "depthwise_regularizer": null, "pointwise_regularizer": null, "depthwise_constraint": null, "pointwise_constraint": null}, "inbound_nodes": [[["block3_sepconv1_act", 0, 0, {}]]]}, {"name": "block3_sepconv1_bn", "class_name": "BatchNormalization", "config": {"name": "block3_sepconv1_bn", "trainable": false, "axis": -1, "momentum": 0.99, "epsilon": 0.001, "center": true, "scale": true, "beta_initializer": {"class_name": "Zeros", "config": {}}, "gamma_initializer": {"class_name": "Ones", "config": {}}, "moving_mean_initializer": {"class_name": "Zeros", "config": {}}, "moving_variance_initializer": {"class_name": "Ones", "config": {}}, "beta_regularizer": null, "gamma_regularizer": null, "beta_constraint": null, "gamma_constraint": null}, "inbound_nodes": [[["block3_sepconv1", 0, 0, {}]]]}, {"name": "block3_sepconv2_act", "class_name": "Activation", "config": {"name": "block3_sepconv2_act", "trainable": false, "activation": "relu"}, "inbound_nodes": [[["block3_sepconv1_bn", 0, 0, {}]]]}, {"name": "block3_sepconv2", "class_name": "SeparableConv2D", "config": {"name": "block3_sepconv2", "trainable": false, "filters": 256, "kernel_size": [3, 3], "strides": [1, 1], "padding": "same", "data_format": "channels_last", "dilation_rate": [1, 1], "activation": "linear", "use_bias": false, "bias_initializer": {"class_name": "Zeros", "config": {}}, "bias_regularizer": null, "activity_regularizer": null, "bias_constraint": null, "depth_multiplier": 1, "depthwise_initializer": {"class_name": "VarianceScaling", "config": {"scale": 1.0, "mode": "fan_avg", "distribution": "uniform", "seed": null}}, "pointwise_initializer": {"class_name": "VarianceScaling", "config": {"scale": 1.0, "mode": "fan_avg", "distribution": "uniform", "seed": null}}, "depthwise_regularizer": null, "pointwise_regularizer": null, "depthwise_constraint": null, "pointwise_constraint": null}, "inbound_nodes": [[["block3_sepconv2_act", 0, 0, {}]]]}, {"name": "block3_sepconv2_bn", "class_name": "BatchNormalization", "config": {"name": "block3_sepconv2_bn", "trainable": false, "axis": -1, "momentum": 0.99, "epsilon": 0.001, "center": true, "scale": true, "beta_initializer": {"class_name": "Zeros", "config": {}}, "gamma_initializer": {"class_name": "Ones", "config": {}}, "moving_mean_initializer": {"class_name": "Zeros", "config": {}}, "moving_variance_initializer": {"class_name": "Ones", "config": {}}, "beta_regularizer": null, "gamma_regularizer": null, "beta_constraint": null, "gamma_constraint": null}, "inbound_nodes": [[["block3_sepconv2", 0, 0, {}]]]}, {"name": "conv2d_2", "class_name": "Conv2D", "config": {"name": "conv2d_2", "trainable": false, "filters": 256, "kernel_size": [1, 1], "strides": [2, 2], "padding": "same", "data_format": "channels_last", "dilation_rate": [1, 1], "activation": "linear", "use_bias": false, "kernel_initializer": {"class_name": "VarianceScaling", "config": {"scale": 1.0, "mode": "fan_avg", "distribution": "uniform", "seed": null}}, "bias_initializer": {"class_name": "Zeros", "config": {}}, "kernel_regularizer": null, "bias_regularizer": null, "activity_regularizer": null, "kernel_constraint": null, "bias_constraint": null}, "inbound_nodes": [[["add_1", 0, 0, {}]]]}, {"name": "block3_pool", "class_name": "MaxPooling2D", "config": {"name": "block3_pool", "trainable": false, "pool_size": [3, 3], "padding": "same", "strides": [2, 2], "data_format": "channels_last"}, "inbound_nodes": [[["block3_sepconv2_bn", 0, 0, {}]]]}, {"name": "batch_normalization_2", "class_name": "BatchNormalization", "config": {"name": "batch_normalization_2", "trainable": false, "axis": -1, "momentum": 0.99, "epsilon": 0.001, "center": true, "scale": true, "beta_initializer": {"class_name": "Zeros", "config": {}}, "gamma_initializer": {"class_name": "Ones", "config": {}}, "moving_mean_initializer": {"class_name": "Zeros", "config": {}}, "moving_variance_initializer": {"class_name": "Ones", "config": {}}, "beta_regularizer": null, "gamma_regularizer": null, "beta_constraint": null, "gamma_constraint": null}, "inbound_nodes": [[["conv2d_2", 0, 0, {}]]]}, {"name": "add_2", "class_name": "Add", "config": {"name": "add_2", "trainable": false}, "inbound_nodes": [[["block3_pool", 0, 0, {}], ["batch_normalization_2", 0, 0, {}]]]}, {"name": "block4_sepconv1_act", "class_name": "Activation", "config": {"name": "block4_sepconv1_act", "trainable": false, "activation": "relu"}, "inbound_nodes": [[["add_2", 0, 0, {}]]]}, {"name": "block4_sepconv1", "class_name": "SeparableConv2D", "config": {"name": "block4_sepconv1", "trainable": false, "filters": 728, "kernel_size": [3, 3], "strides": [1, 1], "padding": "same", "data_format": "channels_last", "dilation_rate": [1, 1], "activation": "linear", "use_bias": false, "bias_initializer": {"class_name": "Zeros", "config": {}}, "bias_regularizer": null, "activity_regularizer": null, "bias_constraint": null, "depth_multiplier": 1, "depthwise_initializer": {"class_name": "VarianceScaling", "config": {"scale": 1.0, "mode": "fan_avg", "distribution": "uniform", "seed": null}}, "pointwise_initializer": {"class_name": "VarianceScaling", "config": {"scale": 1.0, "mode": "fan_avg", "distribution": "uniform", "seed": null}}, "depthwise_regularizer": null, "pointwise_regularizer": null, "depthwise_constraint": null, "pointwise_constraint": null}, "inbound_nodes": [[["block4_sepconv1_act", 0, 0, {}]]]}, {"name": "block4_sepconv1_bn", "class_name": "BatchNormalization", "config": {"name": "block4_sepconv1_bn", "trainable": false, "axis": -1, "momentum": 0.99, "epsilon": 0.001, "center": true, "scale": true, "beta_initializer": {"class_name": "Zeros", "config": {}}, "gamma_initializer": {"class_name": "Ones", "config": {}}, "moving_mean_initializer": {"class_name": "Zeros", "config": {}}, "moving_variance_initializer": {"class_name": "Ones", "config": {}}, "beta_regularizer": null, "gamma_regularizer": null, "beta_constraint": null, "gamma_constraint": null}, "inbound_nodes": [[["block4_sepconv1", 0, 0, {}]]]}, {"name": "block4_sepconv2_act", "class_name": "Activation", "config": {"name": "block4_sepconv2_act", "trainable": false, "activation": "relu"}, "inbound_nodes": [[["block4_sepconv1_bn", 0, 0, {}]]]}, {"name": "block4_sepconv2", "class_name": "SeparableConv2D", "config": {"name": "block4_sepconv2", "trainable": false, "filters": 728, "kernel_size": [3, 3], "strides": [1, 1], "padding": "same", "data_format": "channels_last", "dilation_rate": [1, 1], "activation": "linear", "use_bias": false, "bias_initializer": {"class_name": "Zeros", "config": {}}, "bias_regularizer": null, "activity_regularizer": null, "bias_constraint": null, "depth_multiplier": 1, "depthwise_initializer": {"class_name": "VarianceScaling", "config": {"scale": 1.0, "mode": "fan_avg", "distribution": "uniform", "seed": null}}, "pointwise_initializer": {"class_name": "VarianceScaling", "config": {"scale": 1.0, "mode": "fan_avg", "distribution": "uniform", "seed": null}}, "depthwise_regularizer": null, "pointwise_regularizer": null, "depthwise_constraint": null, "pointwise_constraint": null}, "inbound_nodes": [[["block4_sepconv2_act", 0, 0, {}]]]}, {"name": "block4_sepconv2_bn", "class_name": "BatchNormalization", "config": {"name": "block4_sepconv2_bn", "trainable": false, "axis": -1, "momentum": 0.99, "epsilon": 0.001, "center": true, "scale": true, "beta_initializer": {"class_name": "Zeros", "config": {}}, "gamma_initializer": {"class_name": "Ones", "config": {}}, "moving_mean_initializer": {"class_name": "Zeros", "config": {}}, "moving_variance_initializer": {"class_name": "Ones", "config": {}}, "beta_regularizer": null, "gamma_regularizer": null, "beta_constraint": null, "gamma_constraint": null}, "inbound_nodes": [[["block4_sepconv2", 0, 0, {}]]]}, {"name": "conv2d_3", "class_name": "Conv2D", "config": {"name": "conv2d_3", "trainable": false, "filters": 728, "kernel_size": [1, 1], "strides": [2, 2], "padding": "same", "data_format": "channels_last", "dilation_rate": [1, 1], "activation": "linear", "use_bias": false, "kernel_initializer": {"class_name": "VarianceScaling", "config": {"scale": 1.0, "mode": "fan_avg", "distribution": "uniform", "seed": null}}, "bias_initializer": {"class_name": "Zeros", "config": {}}, "kernel_regularizer": null, "bias_regularizer": null, "activity_regularizer": null, "kernel_constraint": null, "bias_constraint": null}, "inbound_nodes": [[["add_2", 0, 0, {}]]]}, {"name": "block4_pool", "class_name": "MaxPooling2D", "config": {"name": "block4_pool", "trainable": false, "pool_size": [3, 3], "padding": "same", "strides": [2, 2], "data_format": "channels_last"}, "inbound_nodes": [[["block4_sepconv2_bn", 0, 0, {}]]]}, {"name": "batch_normalization_3", "class_name": "BatchNormalization", "config": {"name": "batch_normalization_3", "trainable": false, "axis": -1, "momentum": 0.99, "epsilon": 0.001, "center": true, "scale": true, "beta_initializer": {"class_name": "Zeros", "config": {}}, "gamma_initializer": {"class_name": "Ones", "config": {}}, "moving_mean_initializer": {"class_name": "Zeros", "config": {}}, "moving_variance_initializer": {"class_name": "Ones", "config": {}}, "beta_regularizer": null, "gamma_regularizer": null, "beta_constraint": null, "gamma_constraint": null}, "inbound_nodes": [[["conv2d_3", 0, 0, {}]]]}, {"name": "add_3", "class_name": "Add", "config": {"name": "add_3", "trainable": false}, "inbound_nodes": [[["block4_pool", 0, 0, {}], ["batch_normalization_3", 0, 0, {}]]]}, {"name": "block5_sepconv1_act", "class_name": "Activation", "config": {"name": "block5_sepconv1_act", "trainable": false, "activation": "relu"}, "inbound_nodes": [[["add_3", 0, 0, {}]]]}, {"name": "block5_sepconv1", "class_name": "SeparableConv2D", "config": {"name": "block5_sepconv1", "trainable": false, "filters": 728, "kernel_size": [3, 3], "strides": [1, 1], "padding": "same", "data_format": "channels_last", "dilation_rate": [1, 1], "activation": "linear", "use_bias": false, "bias_initializer": {"class_name": "Zeros", "config": {}}, "bias_regularizer": null, "activity_regularizer": null, "bias_constraint": null, "depth_multiplier": 1, "depthwise_initializer": {"class_name": "VarianceScaling", "config": {"scale": 1.0, "mode": "fan_avg", "distribution": "uniform", "seed": null}}, "pointwise_initializer": {"class_name": "VarianceScaling", "config": {"scale": 1.0, "mode": "fan_avg", "distribution": "uniform", "seed": null}}, "depthwise_regularizer": null, "pointwise_regularizer": null, "depthwise_constraint": null, "pointwise_constraint": null}, "inbound_nodes": [[["block5_sepconv1_act", 0, 0, {}]]]}, {"name": "block5_sepconv1_bn", "class_name": "BatchNormalization", "config": {"name": "block5_sepconv1_bn", "trainable": false, "axis": -1, "momentum": 0.99, "epsilon": 0.001, "center": true, "scale": true, "beta_initializer": {"class_name": "Zeros", "config": {}}, "gamma_initializer": {"class_name": "Ones", "config": {}}, "moving_mean_initializer": {"class_name": "Zeros", "config": {}}, "moving_variance_initializer": {"class_name": "Ones", "config": {}}, "beta_regularizer": null, "gamma_regularizer": null, "beta_constraint": null, "gamma_constraint": null}, "inbound_nodes": [[["block5_sepconv1", 0, 0, {}]]]}, {"name": "block5_sepconv2_act", "class_name": "Activation", "config": {"name": "block5_sepconv2_act", "trainable": false, "activation": "relu"}, "inbound_nodes": [[["block5_sepconv1_bn", 0, 0, {}]]]}, {"name": "block5_sepconv2", "class_name": "SeparableConv2D", "config": {"name": "block5_sepconv2", "trainable": false, "filters": 728, "kernel_size": [3, 3], "strides": [1, 1], "padding": "same", "data_format": "channels_last", "dilation_rate": [1, 1], "activation": "linear", "use_bias": false, "bias_initializer": {"class_name": "Zeros", "config": {}}, "bias_regularizer": null, "activity_regularizer": null, "bias_constraint": null, "depth_multiplier": 1, "depthwise_initializer": {"class_name": "VarianceScaling", "config": {"scale": 1.0, "mode": "fan_avg", "distribution": "uniform", "seed": null}}, "pointwise_initializer": {"class_name": "VarianceScaling", "config": {"scale": 1.0, "mode": "fan_avg", "distribution": "uniform", "seed": null}}, "depthwise_regularizer": null, "pointwise_regularizer": null, "depthwise_constraint": null, "pointwise_constraint": null}, "inbound_nodes": [[["block5_sepconv2_act", 0, 0, {}]]]}, {"name": "block5_sepconv2_bn", "class_name": "BatchNormalization", "config": {"name": "block5_sepconv2_bn", "trainable": false, "axis": -1, "momentum": 0.99, "epsilon": 0.001, "center": true, "scale": true, "beta_initializer": {"class_name": "Zeros", "config": {}}, "gamma_initializer": {"class_name": "Ones", "config": {}}, "moving_mean_initializer": {"class_name": "Zeros", "config": {}}, "moving_variance_initializer": {"class_name": "Ones", "config": {}}, "beta_regularizer": null, "gamma_regularizer": null, "beta_constraint": null, "gamma_constraint": null}, "inbound_nodes": [[["block5_sepconv2", 0, 0, {}]]]}, {"name": "block5_sepconv3_act", "class_name": "Activation", "config": {"name": "block5_sepconv3_act", "trainable": false, "activation": "relu"}, "inbound_nodes": [[["block5_sepconv2_bn", 0, 0, {}]]]}, {"name": "block5_sepconv3", "class_name": "SeparableConv2D", "config": {"name": "block5_sepconv3", "trainable": false, "filters": 728, "kernel_size": [3, 3], "strides": [1, 1], "padding": "same", "data_format": "channels_last", "dilation_rate": [1, 1], "activation": "linear", "use_bias": false, "bias_initializer": {"class_name": "Zeros", "config": {}}, "bias_regularizer": null, "activity_regularizer": null, "bias_constraint": null, "depth_multiplier": 1, "depthwise_initializer": {"class_name": "VarianceScaling", "config": {"scale": 1.0, "mode": "fan_avg", "distribution": "uniform", "seed": null}}, "pointwise_initializer": {"class_name": "VarianceScaling", "config": {"scale": 1.0, "mode": "fan_avg", "distribution": "uniform", "seed": null}}, "depthwise_regularizer": null, "pointwise_regularizer": null, "depthwise_constraint": null, "pointwise_constraint": null}, "inbound_nodes": [[["block5_sepconv3_act", 0, 0, {}]]]}, {"name": "block5_sepconv3_bn", "class_name": "BatchNormalization", "config": {"name": "block5_sepconv3_bn", "trainable": false, "axis": -1, "momentum": 0.99, "epsilon": 0.001, "center": true, "scale": true, "beta_initializer": {"class_name": "Zeros", "config": {}}, "gamma_initializer": {"class_name": "Ones", "config": {}}, "moving_mean_initializer": {"class_name": "Zeros", "config": {}}, "moving_variance_initializer": {"class_name": "Ones", "config": {}}, "beta_regularizer": null, "gamma_regularizer": null, "beta_constraint": null, "gamma_constraint": null}, "inbound_nodes": [[["block5_sepconv3", 0, 0, {}]]]}, {"name": "add_4", "class_name": "Add", "config": {"name": "add_4", "trainable": false}, "inbound_nodes": [[["block5_sepconv3_bn", 0, 0, {}], ["add_3", 0, 0, {}]]]}, {"name": "block6_sepconv1_act", "class_name": "Activation", "config": {"name": "block6_sepconv1_act", "trainable": false, "activation": "relu"}, "inbound_nodes": [[["add_4", 0, 0, {}]]]}, {"name": "block6_sepconv1", "class_name": "SeparableConv2D", "config": {"name": "block6_sepconv1", "trainable": false, "filters": 728, "kernel_size": [3, 3], "strides": [1, 1], "padding": "same", "data_format": "channels_last", "dilation_rate": [1, 1], "activation": "linear", "use_bias": false, "bias_initializer": {"class_name": "Zeros", "config": {}}, "bias_regularizer": null, "activity_regularizer": null, "bias_constraint": null, "depth_multiplier": 1, "depthwise_initializer": {"class_name": "VarianceScaling", "config": {"scale": 1.0, "mode": "fan_avg", "distribution": "uniform", "seed": null}}, "pointwise_initializer": {"class_name": "VarianceScaling", "config": {"scale": 1.0, "mode": "fan_avg", "distribution": "uniform", "seed": null}}, "depthwise_regularizer": null, "pointwise_regularizer": null, "depthwise_constraint": null, "pointwise_constraint": null}, "inbound_nodes": [[["block6_sepconv1_act", 0, 0, {}]]]}, {"name": "block6_sepconv1_bn", "class_name": "BatchNormalization", "config": {"name": "block6_sepconv1_bn", "trainable": false, "axis": -1, "momentum": 0.99, "epsilon": 0.001, "center": true, "scale": true, "beta_initializer": {"class_name": "Zeros", "config": {}}, "gamma_initializer": {"class_name": "Ones", "config": {}}, "moving_mean_initializer": {"class_name": "Zeros", "config": {}}, "moving_variance_initializer": {"class_name": "Ones", "config": {}}, "beta_regularizer": null, "gamma_regularizer": null, "beta_constraint": null, "gamma_constraint": null}, "inbound_nodes": [[["block6_sepconv1", 0, 0, {}]]]}, {"name": "block6_sepconv2_act", "class_name": "Activation", "config": {"name": "block6_sepconv2_act", "trainable": false, "activation": "relu"}, "inbound_nodes": [[["block6_sepconv1_bn", 0, 0, {}]]]}, {"name": "block6_sepconv2", "class_name": "SeparableConv2D", "config": {"name": "block6_sepconv2", "trainable": false, "filters": 728, "kernel_size": [3, 3], "strides": [1, 1], "padding": "same", "data_format": "channels_last", "dilation_rate": [1, 1], "activation": "linear", "use_bias": false, "bias_initializer": {"class_name": "Zeros", "config": {}}, "bias_regularizer": null, "activity_regularizer": null, "bias_constraint": null, "depth_multiplier": 1, "depthwise_initializer": {"class_name": "VarianceScaling", "config": {"scale": 1.0, "mode": "fan_avg", "distribution": "uniform", "seed": null}}, "pointwise_initializer": {"class_name": "VarianceScaling", "config": {"scale": 1.0, "mode": "fan_avg", "distribution": "uniform", "seed": null}}, "depthwise_regularizer": null, "pointwise_regularizer": null, "depthwise_constraint": null, "pointwise_constraint": null}, "inbound_nodes": [[["block6_sepconv2_act", 0, 0, {}]]]}, {"name": "block6_sepconv2_bn", "class_name": "BatchNormalization", "config": {"name": "block6_sepconv2_bn", "trainable": false, "axis": -1, "momentum": 0.99, "epsilon": 0.001, "center": true, "scale": true, "beta_initializer": {"class_name": "Zeros", "config": {}}, "gamma_initializer": {"class_name": "Ones", "config": {}}, "moving_mean_initializer": {"class_name": "Zeros", "config": {}}, "moving_variance_initializer": {"class_name": "Ones", "config": {}}, "beta_regularizer": null, "gamma_regularizer": null, "beta_constraint": null, "gamma_constraint": null}, "inbound_nodes": [[["block6_sepconv2", 0, 0, {}]]]}, {"name": "block6_sepconv3_act", "class_name": "Activation", "config": {"name": "block6_sepconv3_act", "trainable": false, "activation": "relu"}, "inbound_nodes": [[["block6_sepconv2_bn", 0, 0, {}]]]}, {"name": "block6_sepconv3", "class_name": "SeparableConv2D", "config": {"name": "block6_sepconv3", "trainable": false, "filters": 728, "kernel_size": [3, 3], "strides": [1, 1], "padding": "same", "data_format": "channels_last", "dilation_rate": [1, 1], "activation": "linear", "use_bias": false, "bias_initializer": {"class_name": "Zeros", "config": {}}, "bias_regularizer": null, "activity_regularizer": null, "bias_constraint": null, "depth_multiplier": 1, "depthwise_initializer": {"class_name": "VarianceScaling", "config": {"scale": 1.0, "mode": "fan_avg", "distribution": "uniform", "seed": null}}, "pointwise_initializer": {"class_name": "VarianceScaling", "config": {"scale": 1.0, "mode": "fan_avg", "distribution": "uniform", "seed": null}}, "depthwise_regularizer": null, "pointwise_regularizer": null, "depthwise_constraint": null, "pointwise_constraint": null}, "inbound_nodes": [[["block6_sepconv3_act", 0, 0, {}]]]}, {"name": "block6_sepconv3_bn", "class_name": "BatchNormalization", "config": {"name": "block6_sepconv3_bn", "trainable": false, "axis": -1, "momentum": 0.99, "epsilon": 0.001, "center": true, "scale": true, "beta_initializer": {"class_name": "Zeros", "config": {}}, "gamma_initializer": {"class_name": "Ones", "config": {}}, "moving_mean_initializer": {"class_name": "Zeros", "config": {}}, "moving_variance_initializer": {"class_name": "Ones", "config": {}}, "beta_regularizer": null, "gamma_regularizer": null, "beta_constraint": null, "gamma_constraint": null}, "inbound_nodes": [[["block6_sepconv3", 0, 0, {}]]]}, {"name": "add_5", "class_name": "Add", "config": {"name": "add_5", "trainable": false}, "inbound_nodes": [[["block6_sepconv3_bn", 0, 0, {}], ["add_4", 0, 0, {}]]]}, {"name": "block7_sepconv1_act", "class_name": "Activation", "config": {"name": "block7_sepconv1_act", "trainable": false, "activation": "relu"}, "inbound_nodes": [[["add_5", 0, 0, {}]]]}, {"name": "block7_sepconv1", "class_name": "SeparableConv2D", "config": {"name": "block7_sepconv1", "trainable": false, "filters": 728, "kernel_size": [3, 3], "strides": [1, 1], "padding": "same", "data_format": "channels_last", "dilation_rate": [1, 1], "activation": "linear", "use_bias": false, "bias_initializer": {"class_name": "Zeros", "config": {}}, "bias_regularizer": null, "activity_regularizer": null, "bias_constraint": null, "depth_multiplier": 1, "depthwise_initializer": {"class_name": "VarianceScaling", "config": {"scale": 1.0, "mode": "fan_avg", "distribution": "uniform", "seed": null}}, "pointwise_initializer": {"class_name": "VarianceScaling", "config": {"scale": 1.0, "mode": "fan_avg", "distribution": "uniform", "seed": null}}, "depthwise_regularizer": null, "pointwise_regularizer": null, "depthwise_constraint": null, "pointwise_constraint": null}, "inbound_nodes": [[["block7_sepconv1_act", 0, 0, {}]]]}, {"name": "block7_sepconv1_bn", "class_name": "BatchNormalization", "config": {"name": "block7_sepconv1_bn", "trainable": false, "axis": -1, "momentum": 0.99, "epsilon": 0.001, "center": true, "scale": true, "beta_initializer": {"class_name": "Zeros", "config": {}}, "gamma_initializer": {"class_name": "Ones", "config": {}}, "moving_mean_initializer": {"class_name": "Zeros", "config": {}}, "moving_variance_initializer": {"class_name": "Ones", "config": {}}, "beta_regularizer": null, "gamma_regularizer": null, "beta_constraint": null, "gamma_constraint": null}, "inbound_nodes": [[["block7_sepconv1", 0, 0, {}]]]}, {"name": "block7_sepconv2_act", "class_name": "Activation", "config": {"name": "block7_sepconv2_act", "trainable": false, "activation": "relu"}, "inbound_nodes": [[["block7_sepconv1_bn", 0, 0, {}]]]}, {"name": "block7_sepconv2", "class_name": "SeparableConv2D", "config": {"name": "block7_sepconv2", "trainable": false, "filters": 728, "kernel_size": [3, 3], "strides": [1, 1], "padding": "same", "data_format": "channels_last", "dilation_rate": [1, 1], "activation": "linear", "use_bias": false, "bias_initializer": {"class_name": "Zeros", "config": {}}, "bias_regularizer": null, "activity_regularizer": null, "bias_constraint": null, "depth_multiplier": 1, "depthwise_initializer": {"class_name": "VarianceScaling", "config": {"scale": 1.0, "mode": "fan_avg", "distribution": "uniform", "seed": null}}, "pointwise_initializer": {"class_name": "VarianceScaling", "config": {"scale": 1.0, "mode": "fan_avg", "distribution": "uniform", "seed": null}}, "depthwise_regularizer": null, "pointwise_regularizer": null, "depthwise_constraint": null, "pointwise_constraint": null}, "inbound_nodes": [[["block7_sepconv2_act", 0, 0, {}]]]}, {"name": "block7_sepconv2_bn", "class_name": "BatchNormalization", "config": {"name": "block7_sepconv2_bn", "trainable": false, "axis": -1, "momentum": 0.99, "epsilon": 0.001, "center": true, "scale": true, "beta_initializer": {"class_name": "Zeros", "config": {}}, "gamma_initializer": {"class_name": "Ones", "config": {}}, "moving_mean_initializer": {"class_name": "Zeros", "config": {}}, "moving_variance_initializer": {"class_name": "Ones", "config": {}}, "beta_regularizer": null, "gamma_regularizer": null, "beta_constraint": null, "gamma_constraint": null}, "inbound_nodes": [[["block7_sepconv2", 0, 0, {}]]]}, {"name": "block7_sepconv3_act", "class_name": "Activation", "config": {"name": "block7_sepconv3_act", "trainable": false, "activation": "relu"}, "inbound_nodes": [[["block7_sepconv2_bn", 0, 0, {}]]]}, {"name": "block7_sepconv3", "class_name": "SeparableConv2D", "config": {"name": "block7_sepconv3", "trainable": false, "filters": 728, "kernel_size": [3, 3], "strides": [1, 1], "padding": "same", "data_format": "channels_last", "dilation_rate": [1, 1], "activation": "linear", "use_bias": false, "bias_initializer": {"class_name": "Zeros", "config": {}}, "bias_regularizer": null, "activity_regularizer": null, "bias_constraint": null, "depth_multiplier": 1, "depthwise_initializer": {"class_name": "VarianceScaling", "config": {"scale": 1.0, "mode": "fan_avg", "distribution": "uniform", "seed": null}}, "pointwise_initializer": {"class_name": "VarianceScaling", "config": {"scale": 1.0, "mode": "fan_avg", "distribution": "uniform", "seed": null}}, "depthwise_regularizer": null, "pointwise_regularizer": null, "depthwise_constraint": null, "pointwise_constraint": null}, "inbound_nodes": [[["block7_sepconv3_act", 0, 0, {}]]]}, {"name": "block7_sepconv3_bn", "class_name": "BatchNormalization", "config": {"name": "block7_sepconv3_bn", "trainable": false, "axis": -1, "momentum": 0.99, "epsilon": 0.001, "center": true, "scale": true, "beta_initializer": {"class_name": "Zeros", "config": {}}, "gamma_initializer": {"class_name": "Ones", "config": {}}, "moving_mean_initializer": {"class_name": "Zeros", "config": {}}, "moving_variance_initializer": {"class_name": "Ones", "config": {}}, "beta_regularizer": null, "gamma_regularizer": null, "beta_constraint": null, "gamma_constraint": null}, "inbound_nodes": [[["block7_sepconv3", 0, 0, {}]]]}, {"name": "add_6", "class_name": "Add", "config": {"name": "add_6", "trainable": false}, "inbound_nodes": [[["block7_sepconv3_bn", 0, 0, {}], ["add_5", 0, 0, {}]]]}, {"name": "block8_sepconv1_act", "class_name": "Activation", "config": {"name": "block8_sepconv1_act", "trainable": false, "activation": "relu"}, "inbound_nodes": [[["add_6", 0, 0, {}]]]}, {"name": "block8_sepconv1", "class_name": "SeparableConv2D", "config": {"name": "block8_sepconv1", "trainable": false, "filters": 728, "kernel_size": [3, 3], "strides": [1, 1], "padding": "same", "data_format": "channels_last", "dilation_rate": [1, 1], "activation": "linear", "use_bias": false, "bias_initializer": {"class_name": "Zeros", "config": {}}, "bias_regularizer": null, "activity_regularizer": null, "bias_constraint": null, "depth_multiplier": 1, "depthwise_initializer": {"class_name": "VarianceScaling", "config": {"scale": 1.0, "mode": "fan_avg", "distribution": "uniform", "seed": null}}, "pointwise_initializer": {"class_name": "VarianceScaling", "config": {"scale": 1.0, "mode": "fan_avg", "distribution": "uniform", "seed": null}}, "depthwise_regularizer": null, "pointwise_regularizer": null, "depthwise_constraint": null, "pointwise_constraint": null}, "inbound_nodes": [[["block8_sepconv1_act", 0, 0, {}]]]}, {"name": "block8_sepconv1_bn", "class_name": "BatchNormalization", "config": {"name": "block8_sepconv1_bn", "trainable": false, "axis": -1, "momentum": 0.99, "epsilon": 0.001, "center": true, "scale": true, "beta_initializer": {"class_name": "Zeros", "config": {}}, "gamma_initializer": {"class_name": "Ones", "config": {}}, "moving_mean_initializer": {"class_name": "Zeros", "config": {}}, "moving_variance_initializer": {"class_name": "Ones", "config": {}}, "beta_regularizer": null, "gamma_regularizer": null, "beta_constraint": null, "gamma_constraint": null}, "inbound_nodes": [[["block8_sepconv1", 0, 0, {}]]]}, {"name": "block8_sepconv2_act", "class_name": "Activation", "config": {"name": "block8_sepconv2_act", "trainable": false, "activation": "relu"}, "inbound_nodes": [[["block8_sepconv1_bn", 0, 0, {}]]]}, {"name": "block8_sepconv2", "class_name": "SeparableConv2D", "config": {"name": "block8_sepconv2", "trainable": false, "filters": 728, "kernel_size": [3, 3], "strides": [1, 1], "padding": "same", "data_format": "channels_last", "dilation_rate": [1, 1], "activation": "linear", "use_bias": false, "bias_initializer": {"class_name": "Zeros", "config": {}}, "bias_regularizer": null, "activity_regularizer": null, "bias_constraint": null, "depth_multiplier": 1, "depthwise_initializer": {"class_name": "VarianceScaling", "config": {"scale": 1.0, "mode": "fan_avg", "distribution": "uniform", "seed": null}}, "pointwise_initializer": {"class_name": "VarianceScaling", "config": {"scale": 1.0, "mode": "fan_avg", "distribution": "uniform", "seed": null}}, "depthwise_regularizer": null, "pointwise_regularizer": null, "depthwise_constraint": null, "pointwise_constraint": null}, "inbound_nodes": [[["block8_sepconv2_act", 0, 0, {}]]]}, {"name": "block8_sepconv2_bn", "class_name": "BatchNormalization", "config": {"name": "block8_sepconv2_bn", "trainable": false, "axis": -1, "momentum": 0.99, "epsilon": 0.001, "center": true, "scale": true, "beta_initializer": {"class_name": "Zeros", "config": {}}, "gamma_initializer": {"class_name": "Ones", "config": {}}, "moving_mean_initializer": {"class_name": "Zeros", "config": {}}, "moving_variance_initializer": {"class_name": "Ones", "config": {}}, "beta_regularizer": null, "gamma_regularizer": null, "beta_constraint": null, "gamma_constraint": null}, "inbound_nodes": [[["block8_sepconv2", 0, 0, {}]]]}, {"name": "block8_sepconv3_act", "class_name": "Activation", "config": {"name": "block8_sepconv3_act", "trainable": false, "activation": "relu"}, "inbound_nodes": [[["block8_sepconv2_bn", 0, 0, {}]]]}, {"name": "block8_sepconv3", "class_name": "SeparableConv2D", "config": {"name": "block8_sepconv3", "trainable": false, "filters": 728, "kernel_size": [3, 3], "strides": [1, 1], "padding": "same", "data_format": "channels_last", "dilation_rate": [1, 1], "activation": "linear", "use_bias": false, "bias_initializer": {"class_name": "Zeros", "config": {}}, "bias_regularizer": null, "activity_regularizer": null, "bias_constraint": null, "depth_multiplier": 1, "depthwise_initializer": {"class_name": "VarianceScaling", "config": {"scale": 1.0, "mode": "fan_avg", "distribution": "uniform", "seed": null}}, "pointwise_initializer": {"class_name": "VarianceScaling", "config": {"scale": 1.0, "mode": "fan_avg", "distribution": "uniform", "seed": null}}, "depthwise_regularizer": null, "pointwise_regularizer": null, "depthwise_constraint": null, "pointwise_constraint": null}, "inbound_nodes": [[["block8_sepconv3_act", 0, 0, {}]]]}, {"name": "block8_sepconv3_bn", "class_name": "BatchNormalization", "config": {"name": "block8_sepconv3_bn", "trainable": false, "axis": -1, "momentum": 0.99, "epsilon": 0.001, "center": true, "scale": true, "beta_initializer": {"class_name": "Zeros", "config": {}}, "gamma_initializer": {"class_name": "Ones", "config": {}}, "moving_mean_initializer": {"class_name": "Zeros", "config": {}}, "moving_variance_initializer": {"class_name": "Ones", "config": {}}, "beta_regularizer": null, "gamma_regularizer": null, "beta_constraint": null, "gamma_constraint": null}, "inbound_nodes": [[["block8_sepconv3", 0, 0, {}]]]}, {"name": "add_7", "class_name": "Add", "config": {"name": "add_7", "trainable": false}, "inbound_nodes": [[["block8_sepconv3_bn", 0, 0, {}], ["add_6", 0, 0, {}]]]}, {"name": "block9_sepconv1_act", "class_name": "Activation", "config": {"name": "block9_sepconv1_act", "trainable": false, "activation": "relu"}, "inbound_nodes": [[["add_7", 0, 0, {}]]]}, {"name": "block9_sepconv1", "class_name": "SeparableConv2D", "config": {"name": "block9_sepconv1", "trainable": false, "filters": 728, "kernel_size": [3, 3], "strides": [1, 1], "padding": "same", "data_format": "channels_last", "dilation_rate": [1, 1], "activation": "linear", "use_bias": false, "bias_initializer": {"class_name": "Zeros", "config": {}}, "bias_regularizer": null, "activity_regularizer": null, "bias_constraint": null, "depth_multiplier": 1, "depthwise_initializer": {"class_name": "VarianceScaling", "config": {"scale": 1.0, "mode": "fan_avg", "distribution": "uniform", "seed": null}}, "pointwise_initializer": {"class_name": "VarianceScaling", "config": {"scale": 1.0, "mode": "fan_avg", "distribution": "uniform", "seed": null}}, "depthwise_regularizer": null, "pointwise_regularizer": null, "depthwise_constraint": null, "pointwise_constraint": null}, "inbound_nodes": [[["block9_sepconv1_act", 0, 0, {}]]]}, {"name": "block9_sepconv1_bn", "class_name": "BatchNormalization", "config": {"name": "block9_sepconv1_bn", "trainable": false, "axis": -1, "momentum": 0.99, "epsilon": 0.001, "center": true, "scale": true, "beta_initializer": {"class_name": "Zeros", "config": {}}, "gamma_initializer": {"class_name": "Ones", "config": {}}, "moving_mean_initializer": {"class_name": "Zeros", "config": {}}, "moving_variance_initializer": {"class_name": "Ones", "config": {}}, "beta_regularizer": null, "gamma_regularizer": null, "beta_constraint": null, "gamma_constraint": null}, "inbound_nodes": [[["block9_sepconv1", 0, 0, {}]]]}, {"name": "block9_sepconv2_act", "class_name": "Activation", "config": {"name": "block9_sepconv2_act", "trainable": false, "activation": "relu"}, "inbound_nodes": [[["block9_sepconv1_bn", 0, 0, {}]]]}, {"name": "block9_sepconv2", "class_name": "SeparableConv2D", "config": {"name": "block9_sepconv2", "trainable": false, "filters": 728, "kernel_size": [3, 3], "strides": [1, 1], "padding": "same", "data_format": "channels_last", "dilation_rate": [1, 1], "activation": "linear", "use_bias": false, "bias_initializer": {"class_name": "Zeros", "config": {}}, "bias_regularizer": null, "activity_regularizer": null, "bias_constraint": null, "depth_multiplier": 1, "depthwise_initializer": {"class_name": "VarianceScaling", "config": {"scale": 1.0, "mode": "fan_avg", "distribution": "uniform", "seed": null}}, "pointwise_initializer": {"class_name": "VarianceScaling", "config": {"scale": 1.0, "mode": "fan_avg", "distribution": "uniform", "seed": null}}, "depthwise_regularizer": null, "pointwise_regularizer": null, "depthwise_constraint": null, "pointwise_constraint": null}, "inbound_nodes": [[["block9_sepconv2_act", 0, 0, {}]]]}, {"name": "block9_sepconv2_bn", "class_name": "BatchNormalization", "config": {"name": "block9_sepconv2_bn", "trainable": false, "axis": -1, "momentum": 0.99, "epsilon": 0.001, "center": true, "scale": true, "beta_initializer": {"class_name": "Zeros", "config": {}}, "gamma_initializer": {"class_name": "Ones", "config": {}}, "moving_mean_initializer": {"class_name": "Zeros", "config": {}}, "moving_variance_initializer": {"class_name": "Ones", "config": {}}, "beta_regularizer": null, "gamma_regularizer": null, "beta_constraint": null, "gamma_constraint": null}, "inbound_nodes": [[["block9_sepconv2", 0, 0, {}]]]}, {"name": "block9_sepconv3_act", "class_name": "Activation", "config": {"name": "block9_sepconv3_act", "trainable": false, "activation": "relu"}, "inbound_nodes": [[["block9_sepconv2_bn", 0, 0, {}]]]}, {"name": "block9_sepconv3", "class_name": "SeparableConv2D", "config": {"name": "block9_sepconv3", "trainable": false, "filters": 728, "kernel_size": [3, 3], "strides": [1, 1], "padding": "same", "data_format": "channels_last", "dilation_rate": [1, 1], "activation": "linear", "use_bias": false, "bias_initializer": {"class_name": "Zeros", "config": {}}, "bias_regularizer": null, "activity_regularizer": null, "bias_constraint": null, "depth_multiplier": 1, "depthwise_initializer": {"class_name": "VarianceScaling", "config": {"scale": 1.0, "mode": "fan_avg", "distribution": "uniform", "seed": null}}, "pointwise_initializer": {"class_name": "VarianceScaling", "config": {"scale": 1.0, "mode": "fan_avg", "distribution": "uniform", "seed": null}}, "depthwise_regularizer": null, "pointwise_regularizer": null, "depthwise_constraint": null, "pointwise_constraint": null}, "inbound_nodes": [[["block9_sepconv3_act", 0, 0, {}]]]}, {"name": "block9_sepconv3_bn", "class_name": "BatchNormalization", "config": {"name": "block9_sepconv3_bn", "trainable": false, "axis": -1, "momentum": 0.99, "epsilon": 0.001, "center": true, "scale": true, "beta_initializer": {"class_name": "Zeros", "config": {}}, "gamma_initializer": {"class_name": "Ones", "config": {}}, "moving_mean_initializer": {"class_name": "Zeros", "config": {}}, "moving_variance_initializer": {"class_name": "Ones", "config": {}}, "beta_regularizer": null, "gamma_regularizer": null, "beta_constraint": null, "gamma_constraint": null}, "inbound_nodes": [[["block9_sepconv3", 0, 0, {}]]]}, {"name": "add_8", "class_name": "Add", "config": {"name": "add_8", "trainable": false}, "inbound_nodes": [[["block9_sepconv3_bn", 0, 0, {}], ["add_7", 0, 0, {}]]]}, {"name": "block10_sepconv1_act", "class_name": "Activation", "config": {"name": "block10_sepconv1_act", "trainable": false, "activation": "relu"}, "inbound_nodes": [[["add_8", 0, 0, {}]]]}, {"name": "block10_sepconv1", "class_name": "SeparableConv2D", "config": {"name": "block10_sepconv1", "trainable": false, "filters": 728, "kernel_size": [3, 3], "strides": [1, 1], "padding": "same", "data_format": "channels_last", "dilation_rate": [1, 1], "activation": "linear", "use_bias": false, "bias_initializer": {"class_name": "Zeros", "config": {}}, "bias_regularizer": null, "activity_regularizer": null, "bias_constraint": null, "depth_multiplier": 1, "depthwise_initializer": {"class_name": "VarianceScaling", "config": {"scale": 1.0, "mode": "fan_avg", "distribution": "uniform", "seed": null}}, "pointwise_initializer": {"class_name": "VarianceScaling", "config": {"scale": 1.0, "mode": "fan_avg", "distribution": "uniform", "seed": null}}, "depthwise_regularizer": null, "pointwise_regularizer": null, "depthwise_constraint": null, "pointwise_constraint": null}, "inbound_nodes": [[["block10_sepconv1_act", 0, 0, {}]]]}, {"name": "block10_sepconv1_bn", "class_name": "BatchNormalization", "config": {"name": "block10_sepconv1_bn", "trainable": false, "axis": -1, "momentum": 0.99, "epsilon": 0.001, "center": true, "scale": true, "beta_initializer": {"class_name": "Zeros", "config": {}}, "gamma_initializer": {"class_name": "Ones", "config": {}}, "moving_mean_initializer": {"class_name": "Zeros", "config": {}}, "moving_variance_initializer": {"class_name": "Ones", "config": {}}, "beta_regularizer": null, "gamma_regularizer": null, "beta_constraint": null, "gamma_constraint": null}, "inbound_nodes": [[["block10_sepconv1", 0, 0, {}]]]}, {"name": "block10_sepconv2_act", "class_name": "Activation", "config": {"name": "block10_sepconv2_act", "trainable": false, "activation": "relu"}, "inbound_nodes": [[["block10_sepconv1_bn", 0, 0, {}]]]}, {"name": "block10_sepconv2", "class_name": "SeparableConv2D", "config": {"name": "block10_sepconv2", "trainable": false, "filters": 728, "kernel_size": [3, 3], "strides": [1, 1], "padding": "same", "data_format": "channels_last", "dilation_rate": [1, 1], "activation": "linear", "use_bias": false, "bias_initializer": {"class_name": "Zeros", "config": {}}, "bias_regularizer": null, "activity_regularizer": null, "bias_constraint": null, "depth_multiplier": 1, "depthwise_initializer": {"class_name": "VarianceScaling", "config": {"scale": 1.0, "mode": "fan_avg", "distribution": "uniform", "seed": null}}, "pointwise_initializer": {"class_name": "VarianceScaling", "config": {"scale": 1.0, "mode": "fan_avg", "distribution": "uniform", "seed": null}}, "depthwise_regularizer": null, "pointwise_regularizer": null, "depthwise_constraint": null, "pointwise_constraint": null}, "inbound_nodes": [[["block10_sepconv2_act", 0, 0, {}]]]}, {"name": "block10_sepconv2_bn", "class_name": "BatchNormalization", "config": {"name": "block10_sepconv2_bn", "trainable": false, "axis": -1, "momentum": 0.99, "epsilon": 0.001, "center": true, "scale": true, "beta_initializer": {"class_name": "Zeros", "config": {}}, "gamma_initializer": {"class_name": "Ones", "config": {}}, "moving_mean_initializer": {"class_name": "Zeros", "config": {}}, "moving_variance_initializer": {"class_name": "Ones", "config": {}}, "beta_regularizer": null, "gamma_regularizer": null, "beta_constraint": null, "gamma_constraint": null}, "inbound_nodes": [[["block10_sepconv2", 0, 0, {}]]]}, {"name": "block10_sepconv3_act", "class_name": "Activation", "config": {"name": "block10_sepconv3_act", "trainable": false, "activation": "relu"}, "inbound_nodes": [[["block10_sepconv2_bn", 0, 0, {}]]]}, {"name": "block10_sepconv3", "class_name": "SeparableConv2D", "config": {"name": "block10_sepconv3", "trainable": false, "filters": 728, "kernel_size": [3, 3], "strides": [1, 1], "padding": "same", "data_format": "channels_last", "dilation_rate": [1, 1], "activation": "linear", "use_bias": false, "bias_initializer": {"class_name": "Zeros", "config": {}}, "bias_regularizer": null, "activity_regularizer": null, "bias_constraint": null, "depth_multiplier": 1, "depthwise_initializer": {"class_name": "VarianceScaling", "config": {"scale": 1.0, "mode": "fan_avg", "distribution": "uniform", "seed": null}}, "pointwise_initializer": {"class_name": "VarianceScaling", "config": {"scale": 1.0, "mode": "fan_avg", "distribution": "uniform", "seed": null}}, "depthwise_regularizer": null, "pointwise_regularizer": null, "depthwise_constraint": null, "pointwise_constraint": null}, "inbound_nodes": [[["block10_sepconv3_act", 0, 0, {}]]]}, {"name": "block10_sepconv3_bn", "class_name": "BatchNormalization", "config": {"name": "block10_sepconv3_bn", "trainable": false, "axis": -1, "momentum": 0.99, "epsilon": 0.001, "center": true, "scale": true, "beta_initializer": {"class_name": "Zeros", "config": {}}, "gamma_initializer": {"class_name": "Ones", "config": {}}, "moving_mean_initializer": {"class_name": "Zeros", "config": {}}, "moving_variance_initializer": {"class_name": "Ones", "config": {}}, "beta_regularizer": null, "gamma_regularizer": null, "beta_constraint": null, "gamma_constraint": null}, "inbound_nodes": [[["block10_sepconv3", 0, 0, {}]]]}, {"name": "add_9", "class_name": "Add", "config": {"name": "add_9", "trainable": false}, "inbound_nodes": [[["block10_sepconv3_bn", 0, 0, {}], ["add_8", 0, 0, {}]]]}, {"name": "block11_sepconv1_act", "class_name": "Activation", "config": {"name": "block11_sepconv1_act", "trainable": false, "activation": "relu"}, "inbound_nodes": [[["add_9", 0, 0, {}]]]}, {"name": "block11_sepconv1", "class_name": "SeparableConv2D", "config": {"name": "block11_sepconv1", "trainable": false, "filters": 728, "kernel_size": [3, 3], "strides": [1, 1], "padding": "same", "data_format": "channels_last", "dilation_rate": [1, 1], "activation": "linear", "use_bias": false, "bias_initializer": {"class_name": "Zeros", "config": {}}, "bias_regularizer": null, "activity_regularizer": null, "bias_constraint": null, "depth_multiplier": 1, "depthwise_initializer": {"class_name": "VarianceScaling", "config": {"scale": 1.0, "mode": "fan_avg", "distribution": "uniform", "seed": null}}, "pointwise_initializer": {"class_name": "VarianceScaling", "config": {"scale": 1.0, "mode": "fan_avg", "distribution": "uniform", "seed": null}}, "depthwise_regularizer": null, "pointwise_regularizer": null, "depthwise_constraint": null, "pointwise_constraint": null}, "inbound_nodes": [[["block11_sepconv1_act", 0, 0, {}]]]}, {"name": "block11_sepconv1_bn", "class_name": "BatchNormalization", "config": {"name": "block11_sepconv1_bn", "trainable": false, "axis": -1, "momentum": 0.99, "epsilon": 0.001, "center": true, "scale": true, "beta_initializer": {"class_name": "Zeros", "config": {}}, "gamma_initializer": {"class_name": "Ones", "config": {}}, "moving_mean_initializer": {"class_name": "Zeros", "config": {}}, "moving_variance_initializer": {"class_name": "Ones", "config": {}}, "beta_regularizer": null, "gamma_regularizer": null, "beta_constraint": null, "gamma_constraint": null}, "inbound_nodes": [[["block11_sepconv1", 0, 0, {}]]]}, {"name": "block11_sepconv2_act", "class_name": "Activation", "config": {"name": "block11_sepconv2_act", "trainable": false, "activation": "relu"}, "inbound_nodes": [[["block11_sepconv1_bn", 0, 0, {}]]]}, {"name": "block11_sepconv2", "class_name": "SeparableConv2D", "config": {"name": "block11_sepconv2", "trainable": false, "filters": 728, "kernel_size": [3, 3], "strides": [1, 1], "padding": "same", "data_format": "channels_last", "dilation_rate": [1, 1], "activation": "linear", "use_bias": false, "bias_initializer": {"class_name": "Zeros", "config": {}}, "bias_regularizer": null, "activity_regularizer": null, "bias_constraint": null, "depth_multiplier": 1, "depthwise_initializer": {"class_name": "VarianceScaling", "config": {"scale": 1.0, "mode": "fan_avg", "distribution": "uniform", "seed": null}}, "pointwise_initializer": {"class_name": "VarianceScaling", "config": {"scale": 1.0, "mode": "fan_avg", "distribution": "uniform", "seed": null}}, "depthwise_regularizer": null, "pointwise_regularizer": null, "depthwise_constraint": null, "pointwise_constraint": null}, "inbound_nodes": [[["block11_sepconv2_act", 0, 0, {}]]]}, {"name": "block11_sepconv2_bn", "class_name": "BatchNormalization", "config": {"name": "block11_sepconv2_bn", "trainable": false, "axis": -1, "momentum": 0.99, "epsilon": 0.001, "center": true, "scale": true, "beta_initializer": {"class_name": "Zeros", "config": {}}, "gamma_initializer": {"class_name": "Ones", "config": {}}, "moving_mean_initializer": {"class_name": "Zeros", "config": {}}, "moving_variance_initializer": {"class_name": "Ones", "config": {}}, "beta_regularizer": null, "gamma_regularizer": null, "beta_constraint": null, "gamma_constraint": null}, "inbound_nodes": [[["block11_sepconv2", 0, 0, {}]]]}, {"name": "block11_sepconv3_act", "class_name": "Activation", "config": {"name": "block11_sepconv3_act", "trainable": false, "activation": "relu"}, "inbound_nodes": [[["block11_sepconv2_bn", 0, 0, {}]]]}, {"name": "block11_sepconv3", "class_name": "SeparableConv2D", "config": {"name": "block11_sepconv3", "trainable": false, "filters": 728, "kernel_size": [3, 3], "strides": [1, 1], "padding": "same", "data_format": "channels_last", "dilation_rate": [1, 1], "activation": "linear", "use_bias": false, "bias_initializer": {"class_name": "Zeros", "config": {}}, "bias_regularizer": null, "activity_regularizer": null, "bias_constraint": null, "depth_multiplier": 1, "depthwise_initializer": {"class_name": "VarianceScaling", "config": {"scale": 1.0, "mode": "fan_avg", "distribution": "uniform", "seed": null}}, "pointwise_initializer": {"class_name": "VarianceScaling", "config": {"scale": 1.0, "mode": "fan_avg", "distribution": "uniform", "seed": null}}, "depthwise_regularizer": null, "pointwise_regularizer": null, "depthwise_constraint": null, "pointwise_constraint": null}, "inbound_nodes": [[["block11_sepconv3_act", 0, 0, {}]]]}, {"name": "block11_sepconv3_bn", "class_name": "BatchNormalization", "config": {"name": "block11_sepconv3_bn", "trainable": false, "axis": -1, "momentum": 0.99, "epsilon": 0.001, "center": true, "scale": true, "beta_initializer": {"class_name": "Zeros", "config": {}}, "gamma_initializer": {"class_name": "Ones", "config": {}}, "moving_mean_initializer": {"class_name": "Zeros", "config": {}}, "moving_variance_initializer": {"class_name": "Ones", "config": {}}, "beta_regularizer": null, "gamma_regularizer": null, "beta_constraint": null, "gamma_constraint": null}, "inbound_nodes": [[["block11_sepconv3", 0, 0, {}]]]}, {"name": "add_10", "class_name": "Add", "config": {"name": "add_10", "trainable": false}, "inbound_nodes": [[["block11_sepconv3_bn", 0, 0, {}], ["add_9", 0, 0, {}]]]}, {"name": "block12_sepconv1_act", "class_name": "Activation", "config": {"name": "block12_sepconv1_act", "trainable": false, "activation": "relu"}, "inbound_nodes": [[["add_10", 0, 0, {}]]]}, {"name": "block12_sepconv1", "class_name": "SeparableConv2D", "config": {"name": "block12_sepconv1", "trainable": false, "filters": 728, "kernel_size": [3, 3], "strides": [1, 1], "padding": "same", "data_format": "channels_last", "dilation_rate": [1, 1], "activation": "linear", "use_bias": false, "bias_initializer": {"class_name": "Zeros", "config": {}}, "bias_regularizer": null, "activity_regularizer": null, "bias_constraint": null, "depth_multiplier": 1, "depthwise_initializer": {"class_name": "VarianceScaling", "config": {"scale": 1.0, "mode": "fan_avg", "distribution": "uniform", "seed": null}}, "pointwise_initializer": {"class_name": "VarianceScaling", "config": {"scale": 1.0, "mode": "fan_avg", "distribution": "uniform", "seed": null}}, "depthwise_regularizer": null, "pointwise_regularizer": null, "depthwise_constraint": null, "pointwise_constraint": null}, "inbound_nodes": [[["block12_sepconv1_act", 0, 0, {}]]]}, {"name": "block12_sepconv1_bn", "class_name": "BatchNormalization", "config": {"name": "block12_sepconv1_bn", "trainable": false, "axis": -1, "momentum": 0.99, "epsilon": 0.001, "center": true, "scale": true, "beta_initializer": {"class_name": "Zeros", "config": {}}, "gamma_initializer": {"class_name": "Ones", "config": {}}, "moving_mean_initializer": {"class_name": "Zeros", "config": {}}, "moving_variance_initializer": {"class_name": "Ones", "config": {}}, "beta_regularizer": null, "gamma_regularizer": null, "beta_constraint": null, "gamma_constraint": null}, "inbound_nodes": [[["block12_sepconv1", 0, 0, {}]]]}, {"name": "block12_sepconv2_act", "class_name": "Activation", "config": {"name": "block12_sepconv2_act", "trainable": false, "activation": "relu"}, "inbound_nodes": [[["block12_sepconv1_bn", 0, 0, {}]]]}, {"name": "block12_sepconv2", "class_name": "SeparableConv2D", "config": {"name": "block12_sepconv2", "trainable": false, "filters": 728, "kernel_size": [3, 3], "strides": [1, 1], "padding": "same", "data_format": "channels_last", "dilation_rate": [1, 1], "activation": "linear", "use_bias": false, "bias_initializer": {"class_name": "Zeros", "config": {}}, "bias_regularizer": null, "activity_regularizer": null, "bias_constraint": null, "depth_multiplier": 1, "depthwise_initializer": {"class_name": "VarianceScaling", "config": {"scale": 1.0, "mode": "fan_avg", "distribution": "uniform", "seed": null}}, "pointwise_initializer": {"class_name": "VarianceScaling", "config": {"scale": 1.0, "mode": "fan_avg", "distribution": "uniform", "seed": null}}, "depthwise_regularizer": null, "pointwise_regularizer": null, "depthwise_constraint": null, "pointwise_constraint": null}, "inbound_nodes": [[["block12_sepconv2_act", 0, 0, {}]]]}, {"name": "block12_sepconv2_bn", "class_name": "BatchNormalization", "config": {"name": "block12_sepconv2_bn", "trainable": false, "axis": -1, "momentum": 0.99, "epsilon": 0.001, "center": true, "scale": true, "beta_initializer": {"class_name": "Zeros", "config": {}}, "gamma_initializer": {"class_name": "Ones", "config": {}}, "moving_mean_initializer": {"class_name": "Zeros", "config": {}}, "moving_variance_initializer": {"class_name": "Ones", "config": {}}, "beta_regularizer": null, "gamma_regularizer": null, "beta_constraint": null, "gamma_constraint": null}, "inbound_nodes": [[["block12_sepconv2", 0, 0, {}]]]}, {"name": "block12_sepconv3_act", "class_name": "Activation", "config": {"name": "block12_sepconv3_act", "trainable": false, "activation": "relu"}, "inbound_nodes": [[["block12_sepconv2_bn", 0, 0, {}]]]}, {"name": "block12_sepconv3", "class_name": "SeparableConv2D", "config": {"name": "block12_sepconv3", "trainable": false, "filters": 728, "kernel_size": [3, 3], "strides": [1, 1], "padding": "same", "data_format": "channels_last", "dilation_rate": [1, 1], "activation": "linear", "use_bias": false, "bias_initializer": {"class_name": "Zeros", "config": {}}, "bias_regularizer": null, "activity_regularizer": null, "bias_constraint": null, "depth_multiplier": 1, "depthwise_initializer": {"class_name": "VarianceScaling", "config": {"scale": 1.0, "mode": "fan_avg", "distribution": "uniform", "seed": null}}, "pointwise_initializer": {"class_name": "VarianceScaling", "config": {"scale": 1.0, "mode": "fan_avg", "distribution": "uniform", "seed": null}}, "depthwise_regularizer": null, "pointwise_regularizer": null, "depthwise_constraint": null, "pointwise_constraint": null}, "inbound_nodes": [[["block12_sepconv3_act", 0, 0, {}]]]}, {"name": "block12_sepconv3_bn", "class_name": "BatchNormalization", "config": {"name": "block12_sepconv3_bn", "trainable": false, "axis": -1, "momentum": 0.99, "epsilon": 0.001, "center": true, "scale": true, "beta_initializer": {"class_name": "Zeros", "config": {}}, "gamma_initializer": {"class_name": "Ones", "config": {}}, "moving_mean_initializer": {"class_name": "Zeros", "config": {}}, "moving_variance_initializer": {"class_name": "Ones", "config": {}}, "beta_regularizer": null, "gamma_regularizer": null, "beta_constraint": null, "gamma_constraint": null}, "inbound_nodes": [[["block12_sepconv3", 0, 0, {}]]]}, {"name": "add_11", "class_name": "Add", "config": {"name": "add_11", "trainable": false}, "inbound_nodes": [[["block12_sepconv3_bn", 0, 0, {}], ["add_10", 0, 0, {}]]]}, {"name": "block13_sepconv1_act", "class_name": "Activation", "config": {"name": "block13_sepconv1_act", "trainable": false, "activation": "relu"}, "inbound_nodes": [[["add_11", 0, 0, {}]]]}, {"name": "block13_sepconv1", "class_name": "SeparableConv2D", "config": {"name": "block13_sepconv1", "trainable": false, "filters": 728, "kernel_size": [3, 3], "strides": [1, 1], "padding": "same", "data_format": "channels_last", "dilation_rate": [1, 1], "activation": "linear", "use_bias": false, "bias_initializer": {"class_name": "Zeros", "config": {}}, "bias_regularizer": null, "activity_regularizer": null, "bias_constraint": null, "depth_multiplier": 1, "depthwise_initializer": {"class_name": "VarianceScaling", "config": {"scale": 1.0, "mode": "fan_avg", "distribution": "uniform", "seed": null}}, "pointwise_initializer": {"class_name": "VarianceScaling", "config": {"scale": 1.0, "mode": "fan_avg", "distribution": "uniform", "seed": null}}, "depthwise_regularizer": null, "pointwise_regularizer": null, "depthwise_constraint": null, "pointwise_constraint": null}, "inbound_nodes": [[["block13_sepconv1_act", 0, 0, {}]]]}, {"name": "block13_sepconv1_bn", "class_name": "BatchNormalization", "config": {"name": "block13_sepconv1_bn", "trainable": false, "axis": -1, "momentum": 0.99, "epsilon": 0.001, "center": true, "scale": true, "beta_initializer": {"class_name": "Zeros", "config": {}}, "gamma_initializer": {"class_name": "Ones", "config": {}}, "moving_mean_initializer": {"class_name": "Zeros", "config": {}}, "moving_variance_initializer": {"class_name": "Ones", "config": {}}, "beta_regularizer": null, "gamma_regularizer": null, "beta_constraint": null, "gamma_constraint": null}, "inbound_nodes": [[["block13_sepconv1", 0, 0, {}]]]}, {"name": "block13_sepconv2_act", "class_name": "Activation", "config": {"name": "block13_sepconv2_act", "trainable": false, "activation": "relu"}, "inbound_nodes": [[["block13_sepconv1_bn", 0, 0, {}]]]}, {"name": "block13_sepconv2", "class_name": "SeparableConv2D", "config": {"name": "block13_sepconv2", "trainable": false, "filters": 1024, "kernel_size": [3, 3], "strides": [1, 1], "padding": "same", "data_format": "channels_last", "dilation_rate": [1, 1], "activation": "linear", "use_bias": false, "bias_initializer": {"class_name": "Zeros", "config": {}}, "bias_regularizer": null, "activity_regularizer": null, "bias_constraint": null, "depth_multiplier": 1, "depthwise_initializer": {"class_name": "VarianceScaling", "config": {"scale": 1.0, "mode": "fan_avg", "distribution": "uniform", "seed": null}}, "pointwise_initializer": {"class_name": "VarianceScaling", "config": {"scale": 1.0, "mode": "fan_avg", "distribution": "uniform", "seed": null}}, "depthwise_regularizer": null, "pointwise_regularizer": null, "depthwise_constraint": null, "pointwise_constraint": null}, "inbound_nodes": [[["block13_sepconv2_act", 0, 0, {}]]]}, {"name": "block13_sepconv2_bn", "class_name": "BatchNormalization", "config": {"name": "block13_sepconv2_bn", "trainable": false, "axis": -1, "momentum": 0.99, "epsilon": 0.001, "center": true, "scale": true, "beta_initializer": {"class_name": "Zeros", "config": {}}, "gamma_initializer": {"class_name": "Ones", "config": {}}, "moving_mean_initializer": {"class_name": "Zeros", "config": {}}, "moving_variance_initializer": {"class_name": "Ones", "config": {}}, "beta_regularizer": null, "gamma_regularizer": null, "beta_constraint": null, "gamma_constraint": null}, "inbound_nodes": [[["block13_sepconv2", 0, 0, {}]]]}, {"name": "conv2d_4", "class_name": "Conv2D", "config": {"name": "conv2d_4", "trainable": false, "filters": 1024, "kernel_size": [1, 1], "strides": [2, 2], "padding": "same", "data_format": "channels_last", "dilation_rate": [1, 1], "activation": "linear", "use_bias": false, "kernel_initializer": {"class_name": "VarianceScaling", "config": {"scale": 1.0, "mode": "fan_avg", "distribution": "uniform", "seed": null}}, "bias_initializer": {"class_name": "Zeros", "config": {}}, "kernel_regularizer": null, "bias_regularizer": null, "activity_regularizer": null, "kernel_constraint": null, "bias_constraint": null}, "inbound_nodes": [[["add_11", 0, 0, {}]]]}, {"name": "block13_pool", "class_name": "MaxPooling2D", "config": {"name": "block13_pool", "trainable": false, "pool_size": [3, 3], "padding": "same", "strides": [2, 2], "data_format": "channels_last"}, "inbound_nodes": [[["block13_sepconv2_bn", 0, 0, {}]]]}, {"name": "batch_normalization_4", "class_name": "BatchNormalization", "config": {"name": "batch_normalization_4", "trainable": false, "axis": -1, "momentum": 0.99, "epsilon": 0.001, "center": true, "scale": true, "beta_initializer": {"class_name": "Zeros", "config": {}}, "gamma_initializer": {"class_name": "Ones", "config": {}}, "moving_mean_initializer": {"class_name": "Zeros", "config": {}}, "moving_variance_initializer": {"class_name": "Ones", "config": {}}, "beta_regularizer": null, "gamma_regularizer": null, "beta_constraint": null, "gamma_constraint": null}, "inbound_nodes": [[["conv2d_4", 0, 0, {}]]]}, {"name": "add_12", "class_name": "Add", "config": {"name": "add_12", "trainable": false}, "inbound_nodes": [[["block13_pool", 0, 0, {}], ["batch_normalization_4", 0, 0, {}]]]}, {"name": "block14_sepconv1", "class_name": "SeparableConv2D", "config": {"name": "block14_sepconv1", "trainable": false, "filters": 1536, "kernel_size": [3, 3], "strides": [1, 1], "padding": "same", "data_format": "channels_last", "dilation_rate": [1, 1], "activation": "linear", "use_bias": false, "bias_initializer": {"class_name": "Zeros", "config": {}}, "bias_regularizer": null, "activity_regularizer": null, "bias_constraint": null, "depth_multiplier": 1, "depthwise_initializer": {"class_name": "VarianceScaling", "config": {"scale": 1.0, "mode": "fan_avg", "distribution": "uniform", "seed": null}}, "pointwise_initializer": {"class_name": "VarianceScaling", "config": {"scale": 1.0, "mode": "fan_avg", "distribution": "uniform", "seed": null}}, "depthwise_regularizer": null, "pointwise_regularizer": null, "depthwise_constraint": null, "pointwise_constraint": null}, "inbound_nodes": [[["add_12", 0, 0, {}]]]}, {"name": "block14_sepconv1_bn", "class_name": "BatchNormalization", "config": {"name": "block14_sepconv1_bn", "trainable": false, "axis": -1, "momentum": 0.99, "epsilon": 0.001, "center": true, "scale": true, "beta_initializer": {"class_name": "Zeros", "config": {}}, "gamma_initializer": {"class_name": "Ones", "config": {}}, "moving_mean_initializer": {"class_name": "Zeros", "config": {}}, "moving_variance_initializer": {"class_name": "Ones", "config": {}}, "beta_regularizer": null, "gamma_regularizer": null, "beta_constraint": null, "gamma_constraint": null}, "inbound_nodes": [[["block14_sepconv1", 0, 0, {}]]]}, {"name": "block14_sepconv1_act", "class_name": "Activation", "config": {"name": "block14_sepconv1_act", "trainable": false, "activation": "relu"}, "inbound_nodes": [[["block14_sepconv1_bn", 0, 0, {}]]]}, {"name": "block14_sepconv2", "class_name": "SeparableConv2D", "config": {"name": "block14_sepconv2", "trainable": false, "filters": 2048, "kernel_size": [3, 3], "strides": [1, 1], "padding": "same", "data_format": "channels_last", "dilation_rate": [1, 1], "activation": "linear", "use_bias": false, "bias_initializer": {"class_name": "Zeros", "config": {}}, "bias_regularizer": null, "activity_regularizer": null, "bias_constraint": null, "depth_multiplier": 1, "depthwise_initializer": {"class_name": "VarianceScaling", "config": {"scale": 1.0, "mode": "fan_avg", "distribution": "uniform", "seed": null}}, "pointwise_initializer": {"class_name": "VarianceScaling", "config": {"scale": 1.0, "mode": "fan_avg", "distribution": "uniform", "seed": null}}, "depthwise_regularizer": null, "pointwise_regularizer": null, "depthwise_constraint": null, "pointwise_constraint": null}, "inbound_nodes": [[["block14_sepconv1_act", 0, 0, {}]]]}, {"name": "block14_sepconv2_bn", "class_name": "BatchNormalization", "config": {"name": "block14_sepconv2_bn", "trainable": false, "axis": -1, "momentum": 0.99, "epsilon": 0.001, "center": true, "scale": true, "beta_initializer": {"class_name": "Zeros", "config": {}}, "gamma_initializer": {"class_name": "Ones", "config": {}}, "moving_mean_initializer": {"class_name": "Zeros", "config": {}}, "moving_variance_initializer": {"class_name": "Ones", "config": {}}, "beta_regularizer": null, "gamma_regularizer": null, "beta_constraint": null, "gamma_constraint": null}, "inbound_nodes": [[["block14_sepconv2", 0, 0, {}]]]}, {"name": "block14_sepconv2_act", "class_name": "Activation", "config": {"name": "block14_sepconv2_act", "trainable": false, "activation": "relu"}, "inbound_nodes": [[["block14_sepconv2_bn", 0, 0, {}]]]}, {"name": "global_average_pooling2d_1", "class_name": "GlobalAveragePooling2D", "config": {"name": "global_average_pooling2d_1", "trainable": false, "data_format": "channels_last"}, "inbound_nodes": [[["block14_sepconv2_act", 0, 0, {}]]]}, {"name": "model_1", "class_name": "Model", "config": {"name": "model_1", "layers": [{"name": "input_2", "class_name": "InputLayer", "config": {"batch_input_shape": [null, 2048], "dtype": "float32", "sparse": false, "name": "input_2"}, "inbound_nodes": []}, {"name": "dense1024", "class_name": "Dense", "config": {"name": "dense1024", "trainable": true, "units": 1024, "activation": "relu", "use_bias": true, "kernel_initializer": {"class_name": "VarianceScaling", "config": {"scale": 1.0, "mode": "fan_avg", "distribution": "uniform", "seed": null}}, "bias_initializer": {"class_name": "Zeros", "config": {}}, "kernel_regularizer": null, "bias_regularizer": null, "activity_regularizer": null, "kernel_constraint": null, "bias_constraint": null}, "inbound_nodes": [[["input_2", 0, 0, {}]]]}, {"name": "drop05", "class_name": "Dropout", "config": {"name": "drop05", "trainable": true, "rate": 0.5, "noise_shape": null, "seed": null}, "inbound_nodes": [[["dense1024", 0, 0, {}]]]}, {"name": "dense512", "class_name": "Dense", "config": {"name": "dense512", "trainable": true, "units": 512, "activation": "relu", "use_bias": true, "kernel_initializer": {"class_name": "VarianceScaling", "config": {"scale": 1.0, "mode": "fan_avg", "distribution": "uniform", "seed": null}}, "bias_initializer": {"class_name": "Zeros", "config": {}}, "kernel_regularizer": null, "bias_regularizer": null, "activity_regularizer": null, "kernel_constraint": null, "bias_constraint": null}, "inbound_nodes": [[["drop05", 0, 0, {}]]]}, {"name": "drop02", "class_name": "Dropout", "config": {"name": "drop02", "trainable": true, "rate": 0.2, "noise_shape": null, "seed": null}, "inbound_nodes": [[["dense512", 0, 0, {}]]]}, {"name": "final", "class_name": "Dense", "config": {"name": "final", "trainable": true, "units": 122, "activation": "softmax", "use_bias": true, "kernel_initializer": {"class_name": "VarianceScaling", "config": {"scale": 1.0, "mode": "fan_avg", "distribution": "uniform", "seed": null}}, "bias_initializer": {"class_name": "Zeros", "config": {}}, "kernel_regularizer": null, "bias_regularizer": null, "activity_regularizer": null, "kernel_constraint": null, "bias_constraint": null}, "inbound_nodes": [[["drop02", 0, 0, {}]]]}], "input_layers": [["input_2", 0, 0]], "output_layers": [["final", 0, 0]]}, "inbound_nodes": [[["global_average_pooling2d_1", 0, 0, {}]]]}], "input_layers": [["input_1", 0, 0]], "output_layers": [["model_1", 1, 0]]}}, "training_config": {"optimizer_config": {"class_name": "SGD", "config": {"lr": 4.999999873689376e-05, "momentum": 0.8999999761581421, "decay": 0.0, "nesterov": false}}, "loss": "categorical_crossentropy", "metrics": ["accuracy"], "sample_weight_mode": null, "loss_weights": null}}, "weightsManifest": [{"paths": ["group1-shard1of1"], "weights": [{"name": "batch_normalization_1/gamma", "shape": [128], "dtype": "float32"}, {"name": "batch_normalization_1/beta", "shape": [128], "dtype": "float32"}, {"name": "batch_normalization_1/moving_mean", "shape": [128], "dtype": "float32"}, {"name": "batch_normalization_1/moving_variance", "shape": [128], "dtype": "float32"}]}, {"paths": ["group2-shard1of1"], "weights": [{"name": "batch_normalization_2/gamma", "shape": [256], "dtype": "float32"}, {"name": "batch_normalization_2/beta", "shape": [256], "dtype": "float32"}, {"name": "batch_normalization_2/moving_mean", "shape": [256], "dtype": "float32"}, {"name": "batch_normalization_2/moving_variance", "shape": [256], "dtype": "float32"}]}, {"paths": ["group3-shard1of1"], "weights": [{"name": "batch_normalization_3/gamma", "shape": [728], "dtype": "float32"}, {"name": "batch_normalization_3/beta", "shape": [728], "dtype": "float32"}, {"name": "batch_normalization_3/moving_mean", "shape": [728], "dtype": "float32"}, {"name": "batch_normalization_3/moving_variance", "shape": [728], "dtype": "float32"}]}, {"paths": ["group4-shard1of1"], "weights": [{"name": "batch_normalization_4/gamma", "shape": [1024], "dtype": "float32"}, {"name": "batch_normalization_4/beta", "shape": [1024], "dtype": "float32"}, {"name": "batch_normalization_4/moving_mean", "shape": [1024], "dtype": "float32"}, {"name": "batch_normalization_4/moving_variance", "shape": [1024], "dtype": "float32"}]}, {"paths": ["group5-shard1of1"], "weights": [{"name": "block10_sepconv1/depthwise_kernel", "shape": [3, 3, 728, 1], "dtype": "float32"}, {"name": "block10_sepconv1/pointwise_kernel", "shape": [1, 1, 728, 728], "dtype": "float32"}]}, {"paths": ["group6-shard1of1"], "weights": [{"name": "block10_sepconv1_bn/gamma", "shape": [728], "dtype": "float32"}, {"name": "block10_sepconv1_bn/beta", "shape": [728], "dtype": "float32"}, {"name": "block10_sepconv1_bn/moving_mean", "shape": [728], "dtype": "float32"}, {"name": "block10_sepconv1_bn/moving_variance", "shape": [728], "dtype": "float32"}]}, {"paths": ["group7-shard1of1"], "weights": [{"name": "block10_sepconv2/depthwise_kernel", "shape": [3, 3, 728, 1], "dtype": "float32"}, {"name": "block10_sepconv2/pointwise_kernel", "shape": [1, 1, 728, 728], "dtype": "float32"}]}, {"paths": ["group8-shard1of1"], "weights": [{"name": "block10_sepconv2_bn/gamma", "shape": [728], "dtype": "float32"}, {"name": "block10_sepconv2_bn/beta", "shape": [728], "dtype": "float32"}, {"name": "block10_sepconv2_bn/moving_mean", "shape": [728], "dtype": "float32"}, {"name": "block10_sepconv2_bn/moving_variance", "shape": [728], "dtype": "float32"}]}, {"paths": ["group9-shard1of1"], "weights": [{"name": "block10_sepconv3/depthwise_kernel", "shape": [3, 3, 728, 1], "dtype": "float32"}, {"name": "block10_sepconv3/pointwise_kernel", "shape": [1, 1, 728, 728], "dtype": "float32"}]}, {"paths": ["group10-shard1of1"], "weights": [{"name": "block10_sepconv3_bn/gamma", "shape": [728], "dtype": "float32"}, {"name": "block10_sepconv3_bn/beta", "shape": [728], "dtype": "float32"}, {"name": "block10_sepconv3_bn/moving_mean", "shape": [728], "dtype": "float32"}, {"name": "block10_sepconv3_bn/moving_variance", "shape": [728], "dtype": "float32"}]}, {"paths": ["group11-shard1of1"], "weights": [{"name": "block11_sepconv1/depthwise_kernel", "shape": [3, 3, 728, 1], "dtype": "float32"}, {"name": "block11_sepconv1/pointwise_kernel", "shape": [1, 1, 728, 728], "dtype": "float32"}]}, {"paths": ["group12-shard1of1"], "weights": [{"name": "block11_sepconv1_bn/gamma", "shape": [728], "dtype": "float32"}, {"name": "block11_sepconv1_bn/beta", "shape": [728], "dtype": "float32"}, {"name": "block11_sepconv1_bn/moving_mean", "shape": [728], "dtype": "float32"}, {"name": "block11_sepconv1_bn/moving_variance", "shape": [728], "dtype": "float32"}]}, {"paths": ["group13-shard1of1"], "weights": [{"name": "block11_sepconv2/depthwise_kernel", "shape": [3, 3, 728, 1], "dtype": "float32"}, {"name": "block11_sepconv2/pointwise_kernel", "shape": [1, 1, 728, 728], "dtype": "float32"}]}, {"paths": ["group14-shard1of1"], "weights": [{"name": "block11_sepconv2_bn/gamma", "shape": [728], "dtype": "float32"}, {"name": "block11_sepconv2_bn/beta", "shape": [728], "dtype": "float32"}, {"name": "block11_sepconv2_bn/moving_mean", "shape": [728], "dtype": "float32"}, {"name": "block11_sepconv2_bn/moving_variance", "shape": [728], "dtype": "float32"}]}, {"paths": ["group15-shard1of1"], "weights": [{"name": "block11_sepconv3/depthwise_kernel", "shape": [3, 3, 728, 1], "dtype": "float32"}, {"name": "block11_sepconv3/pointwise_kernel", "shape": [1, 1, 728, 728], "dtype": "float32"}]}, {"paths": ["group16-shard1of1"], "weights": [{"name": "block11_sepconv3_bn/gamma", "shape": [728], "dtype": "float32"}, {"name": "block11_sepconv3_bn/beta", "shape": [728], "dtype": "float32"}, {"name": "block11_sepconv3_bn/moving_mean", "shape": [728], "dtype": "float32"}, {"name": "block11_sepconv3_bn/moving_variance", "shape": [728], "dtype": "float32"}]}, {"paths": ["group17-shard1of1"], "weights": [{"name": "block12_sepconv1/depthwise_kernel", "shape": [3, 3, 728, 1], "dtype": "float32"}, {"name": "block12_sepconv1/pointwise_kernel", "shape": [1, 1, 728, 728], "dtype": "float32"}]}, {"paths": ["group18-shard1of1"], "weights": [{"name": "block12_sepconv1_bn/gamma", "shape": [728], "dtype": "float32"}, {"name": "block12_sepconv1_bn/beta", "shape": [728], "dtype": "float32"}, {"name": "block12_sepconv1_bn/moving_mean", "shape": [728], "dtype": "float32"}, {"name": "block12_sepconv1_bn/moving_variance", "shape": [728], "dtype": "float32"}]}, {"paths": ["group19-shard1of1"], "weights": [{"name": "block12_sepconv2/depthwise_kernel", "shape": [3, 3, 728, 1], "dtype": "float32"}, {"name": "block12_sepconv2/pointwise_kernel", "shape": [1, 1, 728, 728], "dtype": "float32"}]}, {"paths": ["group20-shard1of1"], "weights": [{"name": "block12_sepconv2_bn/gamma", "shape": [728], "dtype": "float32"}, {"name": "block12_sepconv2_bn/beta", "shape": [728], "dtype": "float32"}, {"name": "block12_sepconv2_bn/moving_mean", "shape": [728], "dtype": "float32"}, {"name": "block12_sepconv2_bn/moving_variance", "shape": [728], "dtype": "float32"}]}, {"paths": ["group21-shard1of1"], "weights": [{"name": "block12_sepconv3/depthwise_kernel", "shape": [3, 3, 728, 1], "dtype": "float32"}, {"name": "block12_sepconv3/pointwise_kernel", "shape": [1, 1, 728, 728], "dtype": "float32"}]}, {"paths": ["group22-shard1of1"], "weights": [{"name": "block12_sepconv3_bn/gamma", "shape": [728], "dtype": "float32"}, {"name": "block12_sepconv3_bn/beta", "shape": [728], "dtype": "float32"}, {"name": "block12_sepconv3_bn/moving_mean", "shape": [728], "dtype": "float32"}, {"name": "block12_sepconv3_bn/moving_variance", "shape": [728], "dtype": "float32"}]}, {"paths": ["group23-shard1of1"], "weights": [{"name": "block13_sepconv1/depthwise_kernel", "shape": [3, 3, 728, 1], "dtype": "float32"}, {"name": "block13_sepconv1/pointwise_kernel", "shape": [1, 1, 728, 728], "dtype": "float32"}]}, {"paths": ["group24-shard1of1"], "weights": [{"name": "block13_sepconv1_bn/gamma", "shape": [728], "dtype": "float32"}, {"name": "block13_sepconv1_bn/beta", "shape": [728], "dtype": "float32"}, {"name": "block13_sepconv1_bn/moving_mean", "shape": [728], "dtype": "float32"}, {"name": "block13_sepconv1_bn/moving_variance", "shape": [728], "dtype": "float32"}]}, {"paths": ["group25-shard1of1"], "weights": [{"name": "block13_sepconv2/depthwise_kernel", "shape": [3, 3, 728, 1], "dtype": "float32"}, {"name": "block13_sepconv2/pointwise_kernel", "shape": [1, 1, 728, 1024], "dtype": "float32"}]}, {"paths": ["group26-shard1of1"], "weights": [{"name": "block13_sepconv2_bn/gamma", "shape": [1024], "dtype": "float32"}, {"name": "block13_sepconv2_bn/beta", "shape": [1024], "dtype": "float32"}, {"name": "block13_sepconv2_bn/moving_mean", "shape": [1024], "dtype": "float32"}, {"name": "block13_sepconv2_bn/moving_variance", "shape": [1024], "dtype": "float32"}]}, {"paths": ["group27-shard1of2", "group27-shard2of2"], "weights": [{"name": "block14_sepconv1/depthwise_kernel", "shape": [3, 3, 1024, 1], "dtype": "float32"}, {"name": "block14_sepconv1/pointwise_kernel", "shape": [1, 1, 1024, 1536], "dtype": "float32"}]}, {"paths": ["group28-shard1of1"], "weights": [{"name": "block14_sepconv1_bn/gamma", "shape": [1536], "dtype": "float32"}, {"name": "block14_sepconv1_bn/beta", "shape": [1536], "dtype": "float32"}, {"name": "block14_sepconv1_bn/moving_mean", "shape": [1536], "dtype": "float32"}, {"name": "block14_sepconv1_bn/moving_variance", "shape": [1536], "dtype": "float32"}]}, {"paths": ["group29-shard1of4", "group29-shard2of4", "group29-shard3of4", "group29-shard4of4"], "weights": [{"name": "block14_sepconv2/depthwise_kernel", "shape": [3, 3, 1536, 1], "dtype": "float32"}, {"name": "block14_sepconv2/pointwise_kernel", "shape": [1, 1, 1536, 2048], "dtype": "float32"}]}, {"paths": ["group30-shard1of1"], "weights": [{"name": "block14_sepconv2_bn/gamma", "shape": [2048], "dtype": "float32"}, {"name": "block14_sepconv2_bn/beta", "shape": [2048], "dtype": "float32"}, {"name": "block14_sepconv2_bn/moving_mean", "shape": [2048], "dtype": "float32"}, {"name": "block14_sepconv2_bn/moving_variance", "shape": [2048], "dtype": "float32"}]}, {"paths": ["group31-shard1of1"], "weights": [{"name": "block1_conv1/kernel", "shape": [3, 3, 3, 32], "dtype": "float32"}]}, {"paths": ["group32-shard1of1"], "weights": [{"name": "block1_conv1_bn/gamma", "shape": [32], "dtype": "float32"}, {"name": "block1_conv1_bn/beta", "shape": [32], "dtype": "float32"}, {"name": "block1_conv1_bn/moving_mean", "shape": [32], "dtype": "float32"}, {"name": "block1_conv1_bn/moving_variance", "shape": [32], "dtype": "float32"}]}, {"paths": ["group33-shard1of1"], "weights": [{"name": "block1_conv2/kernel", "shape": [3, 3, 32, 64], "dtype": "float32"}]}, {"paths": ["group34-shard1of1"], "weights": [{"name": "block1_conv2_bn/gamma", "shape": [64], "dtype": "float32"}, {"name": "block1_conv2_bn/beta", "shape": [64], "dtype": "float32"}, {"name": "block1_conv2_bn/moving_mean", "shape": [64], "dtype": "float32"}, {"name": "block1_conv2_bn/moving_variance", "shape": [64], "dtype": "float32"}]}, {"paths": ["group35-shard1of1"], "weights": [{"name": "block2_sepconv1/depthwise_kernel", "shape": [3, 3, 64, 1], "dtype": "float32"}, {"name": "block2_sepconv1/pointwise_kernel", "shape": [1, 1, 64, 128], "dtype": "float32"}]}, {"paths": ["group36-shard1of1"], "weights": [{"name": "block2_sepconv1_bn/gamma", "shape": [128], "dtype": "float32"}, {"name": "block2_sepconv1_bn/beta", "shape": [128], "dtype": "float32"}, {"name": "block2_sepconv1_bn/moving_mean", "shape": [128], "dtype": "float32"}, {"name": "block2_sepconv1_bn/moving_variance", "shape": [128], "dtype": "float32"}]}, {"paths": ["group37-shard1of1"], "weights": [{"name": "block2_sepconv2/depthwise_kernel", "shape": [3, 3, 128, 1], "dtype": "float32"}, {"name": "block2_sepconv2/pointwise_kernel", "shape": [1, 1, 128, 128], "dtype": "float32"}]}, {"paths": ["group38-shard1of1"], "weights": [{"name": "block2_sepconv2_bn/gamma", "shape": [128], "dtype": "float32"}, {"name": "block2_sepconv2_bn/beta", "shape": [128], "dtype": "float32"}, {"name": "block2_sepconv2_bn/moving_mean", "shape": [128], "dtype": "float32"}, {"name": "block2_sepconv2_bn/moving_variance", "shape": [128], "dtype": "float32"}]}, {"paths": ["group39-shard1of1"], "weights": [{"name": "block3_sepconv1/depthwise_kernel", "shape": [3, 3, 128, 1], "dtype": "float32"}, {"name": "block3_sepconv1/pointwise_kernel", "shape": [1, 1, 128, 256], "dtype": "float32"}]}, {"paths": ["group40-shard1of1"], "weights": [{"name": "block3_sepconv1_bn/gamma", "shape": [256], "dtype": "float32"}, {"name": "block3_sepconv1_bn/beta", "shape": [256], "dtype": "float32"}, {"name": "block3_sepconv1_bn/moving_mean", "shape": [256], "dtype": "float32"}, {"name": "block3_sepconv1_bn/moving_variance", "shape": [256], "dtype": "float32"}]}, {"paths": ["group41-shard1of1"], "weights": [{"name": "block3_sepconv2/depthwise_kernel", "shape": [3, 3, 256, 1], "dtype": "float32"}, {"name": "block3_sepconv2/pointwise_kernel", "shape": [1, 1, 256, 256], "dtype": "float32"}]}, {"paths": ["group42-shard1of1"], "weights": [{"name": "block3_sepconv2_bn/gamma", "shape": [256], "dtype": "float32"}, {"name": "block3_sepconv2_bn/beta", "shape": [256], "dtype": "float32"}, {"name": "block3_sepconv2_bn/moving_mean", "shape": [256], "dtype": "float32"}, {"name": "block3_sepconv2_bn/moving_variance", "shape": [256], "dtype": "float32"}]}, {"paths": ["group43-shard1of1"], "weights": [{"name": "block4_sepconv1/depthwise_kernel", "shape": [3, 3, 256, 1], "dtype": "float32"}, {"name": "block4_sepconv1/pointwise_kernel", "shape": [1, 1, 256, 728], "dtype": "float32"}]}, {"paths": ["group44-shard1of1"], "weights": [{"name": "block4_sepconv1_bn/gamma", "shape": [728], "dtype": "float32"}, {"name": "block4_sepconv1_bn/beta", "shape": [728], "dtype": "float32"}, {"name": "block4_sepconv1_bn/moving_mean", "shape": [728], "dtype": "float32"}, {"name": "block4_sepconv1_bn/moving_variance", "shape": [728], "dtype": "float32"}]}, {"paths": ["group45-shard1of1"], "weights": [{"name": "block4_sepconv2/depthwise_kernel", "shape": [3, 3, 728, 1], "dtype": "float32"}, {"name": "block4_sepconv2/pointwise_kernel", "shape": [1, 1, 728, 728], "dtype": "float32"}]}, {"paths": ["group46-shard1of1"], "weights": [{"name": "block4_sepconv2_bn/gamma", "shape": [728], "dtype": "float32"}, {"name": "block4_sepconv2_bn/beta", "shape": [728], "dtype": "float32"}, {"name": "block4_sepconv2_bn/moving_mean", "shape": [728], "dtype": "float32"}, {"name": "block4_sepconv2_bn/moving_variance", "shape": [728], "dtype": "float32"}]}, {"paths": ["group47-shard1of1"], "weights": [{"name": "block5_sepconv1/depthwise_kernel", "shape": [3, 3, 728, 1], "dtype": "float32"}, {"name": "block5_sepconv1/pointwise_kernel", "shape": [1, 1, 728, 728], "dtype": "float32"}]}, {"paths": ["group48-shard1of1"], "weights": [{"name": "block5_sepconv1_bn/gamma", "shape": [728], "dtype": "float32"}, {"name": "block5_sepconv1_bn/beta", "shape": [728], "dtype": "float32"}, {"name": "block5_sepconv1_bn/moving_mean", "shape": [728], "dtype": "float32"}, {"name": "block5_sepconv1_bn/moving_variance", "shape": [728], "dtype": "float32"}]}, {"paths": ["group49-shard1of1"], "weights": [{"name": "block5_sepconv2/depthwise_kernel", "shape": [3, 3, 728, 1], "dtype": "float32"}, {"name": "block5_sepconv2/pointwise_kernel", "shape": [1, 1, 728, 728], "dtype": "float32"}]}, {"paths": ["group50-shard1of1"], "weights": [{"name": "block5_sepconv2_bn/gamma", "shape": [728], "dtype": "float32"}, {"name": "block5_sepconv2_bn/beta", "shape": [728], "dtype": "float32"}, {"name": "block5_sepconv2_bn/moving_mean", "shape": [728], "dtype": "float32"}, {"name": "block5_sepconv2_bn/moving_variance", "shape": [728], "dtype": "float32"}]}, {"paths": ["group51-shard1of1"], "weights": [{"name": "block5_sepconv3/depthwise_kernel", "shape": [3, 3, 728, 1], "dtype": "float32"}, {"name": "block5_sepconv3/pointwise_kernel", "shape": [1, 1, 728, 728], "dtype": "float32"}]}, {"paths": ["group52-shard1of1"], "weights": [{"name": "block5_sepconv3_bn/gamma", "shape": [728], "dtype": "float32"}, {"name": "block5_sepconv3_bn/beta", "shape": [728], "dtype": "float32"}, {"name": "block5_sepconv3_bn/moving_mean", "shape": [728], "dtype": "float32"}, {"name": "block5_sepconv3_bn/moving_variance", "shape": [728], "dtype": "float32"}]}, {"paths": ["group53-shard1of1"], "weights": [{"name": "block6_sepconv1/depthwise_kernel", "shape": [3, 3, 728, 1], "dtype": "float32"}, {"name": "block6_sepconv1/pointwise_kernel", "shape": [1, 1, 728, 728], "dtype": "float32"}]}, {"paths": ["group54-shard1of1"], "weights": [{"name": "block6_sepconv1_bn/gamma", "shape": [728], "dtype": "float32"}, {"name": "block6_sepconv1_bn/beta", "shape": [728], "dtype": "float32"}, {"name": "block6_sepconv1_bn/moving_mean", "shape": [728], "dtype": "float32"}, {"name": "block6_sepconv1_bn/moving_variance", "shape": [728], "dtype": "float32"}]}, {"paths": ["group55-shard1of1"], "weights": [{"name": "block6_sepconv2/depthwise_kernel", "shape": [3, 3, 728, 1], "dtype": "float32"}, {"name": "block6_sepconv2/pointwise_kernel", "shape": [1, 1, 728, 728], "dtype": "float32"}]}, {"paths": ["group56-shard1of1"], "weights": [{"name": "block6_sepconv2_bn/gamma", "shape": [728], "dtype": "float32"}, {"name": "block6_sepconv2_bn/beta", "shape": [728], "dtype": "float32"}, {"name": "block6_sepconv2_bn/moving_mean", "shape": [728], "dtype": "float32"}, {"name": "block6_sepconv2_bn/moving_variance", "shape": [728], "dtype": "float32"}]}, {"paths": ["group57-shard1of1"], "weights": [{"name": "block6_sepconv3/depthwise_kernel", "shape": [3, 3, 728, 1], "dtype": "float32"}, {"name": "block6_sepconv3/pointwise_kernel", "shape": [1, 1, 728, 728], "dtype": "float32"}]}, {"paths": ["group58-shard1of1"], "weights": [{"name": "block6_sepconv3_bn/gamma", "shape": [728], "dtype": "float32"}, {"name": "block6_sepconv3_bn/beta", "shape": [728], "dtype": "float32"}, {"name": "block6_sepconv3_bn/moving_mean", "shape": [728], "dtype": "float32"}, {"name": "block6_sepconv3_bn/moving_variance", "shape": [728], "dtype": "float32"}]}, {"paths": ["group59-shard1of1"], "weights": [{"name": "block7_sepconv1/depthwise_kernel", "shape": [3, 3, 728, 1], "dtype": "float32"}, {"name": "block7_sepconv1/pointwise_kernel", "shape": [1, 1, 728, 728], "dtype": "float32"}]}, {"paths": ["group60-shard1of1"], "weights": [{"name": "block7_sepconv1_bn/gamma", "shape": [728], "dtype": "float32"}, {"name": "block7_sepconv1_bn/beta", "shape": [728], "dtype": "float32"}, {"name": "block7_sepconv1_bn/moving_mean", "shape": [728], "dtype": "float32"}, {"name": "block7_sepconv1_bn/moving_variance", "shape": [728], "dtype": "float32"}]}, {"paths": ["group61-shard1of1"], "weights": [{"name": "block7_sepconv2/depthwise_kernel", "shape": [3, 3, 728, 1], "dtype": "float32"}, {"name": "block7_sepconv2/pointwise_kernel", "shape": [1, 1, 728, 728], "dtype": "float32"}]}, {"paths": ["group62-shard1of1"], "weights": [{"name": "block7_sepconv2_bn/gamma", "shape": [728], "dtype": "float32"}, {"name": "block7_sepconv2_bn/beta", "shape": [728], "dtype": "float32"}, {"name": "block7_sepconv2_bn/moving_mean", "shape": [728], "dtype": "float32"}, {"name": "block7_sepconv2_bn/moving_variance", "shape": [728], "dtype": "float32"}]}, {"paths": ["group63-shard1of1"], "weights": [{"name": "block7_sepconv3/depthwise_kernel", "shape": [3, 3, 728, 1], "dtype": "float32"}, {"name": "block7_sepconv3/pointwise_kernel", "shape": [1, 1, 728, 728], "dtype": "float32"}]}, {"paths": ["group64-shard1of1"], "weights": [{"name": "block7_sepconv3_bn/gamma", "shape": [728], "dtype": "float32"}, {"name": "block7_sepconv3_bn/beta", "shape": [728], "dtype": "float32"}, {"name": "block7_sepconv3_bn/moving_mean", "shape": [728], "dtype": "float32"}, {"name": "block7_sepconv3_bn/moving_variance", "shape": [728], "dtype": "float32"}]}, {"paths": ["group65-shard1of1"], "weights": [{"name": "block8_sepconv1/depthwise_kernel", "shape": [3, 3, 728, 1], "dtype": "float32"}, {"name": "block8_sepconv1/pointwise_kernel", "shape": [1, 1, 728, 728], "dtype": "float32"}]}, {"paths": ["group66-shard1of1"], "weights": [{"name": "block8_sepconv1_bn/gamma", "shape": [728], "dtype": "float32"}, {"name": "block8_sepconv1_bn/beta", "shape": [728], "dtype": "float32"}, {"name": "block8_sepconv1_bn/moving_mean", "shape": [728], "dtype": "float32"}, {"name": "block8_sepconv1_bn/moving_variance", "shape": [728], "dtype": "float32"}]}, {"paths": ["group67-shard1of1"], "weights": [{"name": "block8_sepconv2/depthwise_kernel", "shape": [3, 3, 728, 1], "dtype": "float32"}, {"name": "block8_sepconv2/pointwise_kernel", "shape": [1, 1, 728, 728], "dtype": "float32"}]}, {"paths": ["group68-shard1of1"], "weights": [{"name": "block8_sepconv2_bn/gamma", "shape": [728], "dtype": "float32"}, {"name": "block8_sepconv2_bn/beta", "shape": [728], "dtype": "float32"}, {"name": "block8_sepconv2_bn/moving_mean", "shape": [728], "dtype": "float32"}, {"name": "block8_sepconv2_bn/moving_variance", "shape": [728], "dtype": "float32"}]}, {"paths": ["group69-shard1of1"], "weights": [{"name": "block8_sepconv3/depthwise_kernel", "shape": [3, 3, 728, 1], "dtype": "float32"}, {"name": "block8_sepconv3/pointwise_kernel", "shape": [1, 1, 728, 728], "dtype": "float32"}]}, {"paths": ["group70-shard1of1"], "weights": [{"name": "block8_sepconv3_bn/gamma", "shape": [728], "dtype": "float32"}, {"name": "block8_sepconv3_bn/beta", "shape": [728], "dtype": "float32"}, {"name": "block8_sepconv3_bn/moving_mean", "shape": [728], "dtype": "float32"}, {"name": "block8_sepconv3_bn/moving_variance", "shape": [728], "dtype": "float32"}]}, {"paths": ["group71-shard1of1"], "weights": [{"name": "block9_sepconv1/depthwise_kernel", "shape": [3, 3, 728, 1], "dtype": "float32"}, {"name": "block9_sepconv1/pointwise_kernel", "shape": [1, 1, 728, 728], "dtype": "float32"}]}, {"paths": ["group72-shard1of1"], "weights": [{"name": "block9_sepconv1_bn/gamma", "shape": [728], "dtype": "float32"}, {"name": "block9_sepconv1_bn/beta", "shape": [728], "dtype": "float32"}, {"name": "block9_sepconv1_bn/moving_mean", "shape": [728], "dtype": "float32"}, {"name": "block9_sepconv1_bn/moving_variance", "shape": [728], "dtype": "float32"}]}, {"paths": ["group73-shard1of1"], "weights": [{"name": "block9_sepconv2/depthwise_kernel", "shape": [3, 3, 728, 1], "dtype": "float32"}, {"name": "block9_sepconv2/pointwise_kernel", "shape": [1, 1, 728, 728], "dtype": "float32"}]}, {"paths": ["group74-shard1of1"], "weights": [{"name": "block9_sepconv2_bn/gamma", "shape": [728], "dtype": "float32"}, {"name": "block9_sepconv2_bn/beta", "shape": [728], "dtype": "float32"}, {"name": "block9_sepconv2_bn/moving_mean", "shape": [728], "dtype": "float32"}, {"name": "block9_sepconv2_bn/moving_variance", "shape": [728], "dtype": "float32"}]}, {"paths": ["group75-shard1of1"], "weights": [{"name": "block9_sepconv3/depthwise_kernel", "shape": [3, 3, 728, 1], "dtype": "float32"}, {"name": "block9_sepconv3/pointwise_kernel", "shape": [1, 1, 728, 728], "dtype": "float32"}]}, {"paths": ["group76-shard1of1"], "weights": [{"name": "block9_sepconv3_bn/gamma", "shape": [728], "dtype": "float32"}, {"name": "block9_sepconv3_bn/beta", "shape": [728], "dtype": "float32"}, {"name": "block9_sepconv3_bn/moving_mean", "shape": [728], "dtype": "float32"}, {"name": "block9_sepconv3_bn/moving_variance", "shape": [728], "dtype": "float32"}]}, {"paths": ["group77-shard1of1"], "weights": [{"name": "conv2d_1/kernel", "shape": [1, 1, 64, 128], "dtype": "float32"}]}, {"paths": ["group78-shard1of1"], "weights": [{"name": "conv2d_2/kernel", "shape": [1, 1, 128, 256], "dtype": "float32"}]}, {"paths": ["group79-shard1of1"], "weights": [{"name": "conv2d_3/kernel", "shape": [1, 1, 256, 728], "dtype": "float32"}]}, {"paths": ["group80-shard1of1"], "weights": [{"name": "conv2d_4/kernel", "shape": [1, 1, 728, 1024], "dtype": "float32"}]}, {"paths": ["group81-shard1of3", "group81-shard2of3", "group81-shard3of3"], "weights": [{"name": "dense1024/kernel", "shape": [2048, 1024], "dtype": "float32"}, {"name": "dense1024/bias", "shape": [1024], "dtype": "float32"}, {"name": "dense512/kernel", "shape": [1024, 512], "dtype": "float32"}, {"name": "dense512/bias", "shape": [512], "dtype": "float32"}, {"name": "final/kernel", "shape": [512, 122], "dtype": "float32"}, {"name": "final/bias", "shape": [122], "dtype": "float32"}]}]}